src/models/model.pt (torch, 223864 bytes, 25 tensors)

weight f4 [128, 8]
000000 07 9a eb b6 5e ec f0 b5 83 af 52 b6 b3 c2 16 b7
       -7.021477e-06 -1.7950185e-06 -3.13946e-06 -8.986029e-06
000010 41 42 01 b6 ee e7 04 38 7d df e5 36 5b b6 db 36
       -1.9261063e-06 3.1687254e-05 6.8507493e-06 6.5479376e-06
000020 cb 88 05 36 9e a8 d6 37 17 ee 06 b7 d4 aa ed b6
       1.9898168e-06 2.5589306e-05 -8.042457e-06 -7.0830374e-06
000030 16 86 43 36 4a 5d 2e 37 5c fc c4 37 75 df c7 b7
       2.9135313e-06 1.0392929e-05 2.3482535e-05 -2.3826704e-05
000040 94 f7 f4 b6 fb 91 1a 37 f0 6e a9 36 33 43 6b b7
       -7.3005885e-06 9.213104e-06 5.0495073e-06 -1.4022738e-05
000050 a3 f0 40 b6 66 85 a3 36 68 e2 e1 37 fa b3 e2 b7
       -2.8750298e-06 4.873308e-06 2.6927519e-05 -2.7025108e-05
000060 43 ba 2a b8 e9 5d 43 b7 77 1e d8 37 42 12 48 b6
       -4.070463e-05 -1.1644771e-05 2.5763393e-05 -2.981295e-06
000070 10 79 c8 b6 d6 a5 9a b7 ea 95 2a b6 bb 54 9c 37
       -5.974558e-06 -1.8435454e-05 -2.5419235e-06 1.8636105e-05
000080 d3 8c aa 36 48 60 0e b6 1f 28 5c 37 2a e8 bd b6
       5.082789e-06 -2.1215692e-06 1.3122363e-05 -5.6596664e-06
000090 17 80 95 b7 16 da da b7 de 27 fb b6 5b 50 b1 37
       -1.782183e-05 -2.608918e-05 -7.485024e-06 2.1137463e-05
0000a0 41 ae 3e 37 04 8d b6 37 cb cc 09 37 68 74 bb 37
       1.1365454e-05 2.1761756e-05 8.213518e-06 2.2346343e-05
0000b0 4e f6 8f b7 73 e7 84 37 90 0b a4 35 f6 b4 1a b8
       -1.7161623e-05 1.5843403e-05 1.2222317e-06 -3.6884994e-05
0000c0 c8 13 7a 37 6f cd 6b 36 fd 0f e4 b6 68 a3 c8 b7
       1.4905767e-05 3.5137307e-06 -6.796791e-06 -2.391795e-05
0000d0 82 c7 a8 37 63 1d e2 b7 3d 93 00 b7 55 59 ce 37
       2.0120064e-05 -2.6954984e-05 -7.663676e-06 2.4598712e-05
0000e0 6d a2 51 35 61 3b e2 37 27 b5 20 36 48 eb 55 37
       7.809493e-07 2.696895e-05 2.3947302e-06 1.275057e-05
0000f0 fe a7 b0 36 a6 f0 8c 36 09 04 7f b6 86 4b 88 b7
       5.2647656e-06 4.2003403e-06 -3.800031e-06 -1.6247632e-05
000100 85 3d 7a b7 3e 90 24 b7 c4 bd 8a 37 e8 88 55 b7
       -1.4915485e-05 -9.808746e-06 1.6539248e-05 -1.2727665e-05
000110 ea 66 f6 36 5b f8 35 b5 18 9f 5e 37 d7 e4 6e b6
       7.343352e-06 -6.778916e-07 1.3269273e-05 -3.5597966e-06
000120 73 6f 4c b6 e7 15 c8 36 99 e8 5a b7 75 73 ea b6
       -3.046324e-06 5.9630142e-06 -1.3047968e-05 -6.9871844e-06
000130 e2 95 60 b6 59 61 d2 36 0d b0 d6 36 42 12 ed b5
       -3.3465844e-06 6.2698205e-06 6.398192e-06 -1.766319e-06
000140 75 6a 4a b7 c5 e5 05 37 05 7a 3a 37 9f 4d d3 b6
       -1.2064925e-05 7.980915e-06 1.1114874e-05 -6.2973263e-06
000150 fb ae df b5 28 b8 76 37 37 d5 cf 37 1c c3 94 b6
       -1.6665721e-06 1.470562e-05 2.4775609e-05 -4.4334574e-06
000160 45 d8 63 b7 ac c5 9e b5 4f 59 9b 36 0f d7 43 37
       -1.35806085e-05 -1.1829447e-06 4.629757e-06 1.1672978e-05
000170 f8 9f 0d 37 4c a2 2e 37 65 d1 7b b7 00 3b 3b b7
       8.4415005e-06 1.0408996e-05 -1.5009519e-05 -1.1159806e-05
000180 ca d1 2a b6 f4 5b 13 37 11 51 4c 35 52 a8 22 b7
       -2.5454087e-06 8.783292e-06 7.611389e-07 -9.695143e-06
000190 6e 2b d5 b6 f3 a7 fb b7 3f 27 0c b7 7e eb fd 35
       -6.3529505e-06 -2.999974e-05 -8.353788e-06 1.8918506e-06
0001a0 ca 9b 93 37 4b de c5 b4 bf 5c d2 34 a0 cd 05 38
       1.759631e-05 -3.685585e-07 3.918303e-07 3.1901174e-05
0001b0 1b 1b 17 38 e6 88 98 37 ab 84 98 b6 78 57 e4 36
       3.602645e-05 1.818356e-05 -4.5453976e-06 6.805112e-06
0001c0 23 a7 58 b7 3a ba 2d 35 5e a3 31 37 5a e3 3e 37
       -1.2913518e-05 6.471852e-07 1.0588059e-05 1.1377817e-05
0001d0 de aa 20 b6 3b 1c 4d 36 9c 41 41 36 02 39 0a b6
       -2.3941316e-06 3.0563813e-06 2.879743e-06 -2.0596785e-06
0001e0 61 ee 43 37 db ff ba 36 9c 40 de 37 a4 54 19 b6
       1.1678408e-05 5.5730175e-06 2.6494548e-05 -2.2848044e-06
0001f0 20 b1 47 b5 3f f6 07 37 21 21 86 b7 c4 88 db 37
       -7.439103e-07 8.103961e-06 -1.5989472e-05 2.617052e-05
000200 92 98 9c b6 fe fb e6 b6 79 2f bc 37 7c 27 9c 35
       -4.666924e-06 -6.88387e-06 2.2433453e-05 1.1634397e-06
000210 aa 9f 6c b7 04 7f 6c 37 56 b7 47 b6 56 09 4d 36
       -1.4103871e-05 1.4096269e-05 -2.9760026e-06 3.0552815e-06
000220 f9 15 da b6 39 a9 89 37 ac d4 9f b6 d7 da 56 37
       -6.4994642e-06 1.6410473e-05 -4.7633275e-06 1.2806347e-05
000230 99 41 01 37 3f 22 d8 b7 8e ce eb b5 16 c8 70 b6
       7.704272e-06 -2.5765154e-05 -1.756898e-06 -3.5879252e-06
000240 9c d6 8a 36 d0 21 31 36 75 6c 6c 37 2f e7 38 b7
       4.1377043e-06 2.6394737e-06 1.4091948e-05 -1.1021081e-05
000250 ac f3 d5 b6 1d 8a d2 b6 16 14 4c 36 a6 ef 39 37
       -6.376262e-06 -6.274566e-06 3.041006e-06 1.1082657e-05
000260 21 c4 01 36 c7 6d 24 38 81 cb a3 36 1d 41 88 b7
       1.933666e-06 3.9202885e-05 4.8814695e-06 -1.6242784e-05
000270 a3 ef c3 37 9f b1 87 b7 81 48 92 b5 d5 e6 3a b7
       2.3357401e-05 -1.6175965e-05 -1.0898949e-06 -1.1140209e-05
000280 66 73 17 b8 76 db 66 36 9b bb ea b5 64 e6 bd 37
       -3.610868e-05 3.4400414e-06 -1.7488959e-06 2.263784e-05
000290 71 ea 3c b6 b0 8a 3a b7 e4 37 0e 36 dc 63 d0 36
       -2.8150646e-06 -1.1118755e-05 2.1192182e-06 6.210508e-06
0002a0 2f fe 8b b6 ae 7b c7 36 8e 70 19 b7 3e b2 53 36
       -4.1721137e-06 5.9450604e-06 -9.145717e-06 3.15452e-06
0002b0 2a d2 7f b7 c7 62 28 38 25 de 1a b7 cb 0b 99 b6
       -1.5248117e-05 4.0146315e-05 -9.230837e-06 -4.561128e-06
0002c0 78 58 25 35 1b 7a 28 37 25 f8 50 b7 ff ee 25 b7
       6.159603e-07 1.004201e-05 -1.2455542e-05 -9.890412e-06
0002d0 f0 aa c3 36 f5 ff ef 34 65 62 c1 b6 e9 e6 a3 b7
       5.8313526e-06 4.4703452e-07 -5.763303e-06 -1.953864e-05
0002e0 6d 08 88 b7 82 36 d9 b7 8c 5f c0 b7 a4 0e 10 37
       -1.6216387e-05 -2.5893798e-05 -2.2932676e-05 8.586478e-06
0002f0 2c fc 2c b7 08 4d 12 37 d1 08 6d b7 76 8a d8 b7
       -1.0310712e-05 8.720213e-06 -1.41283535e-05 -2.5813682e-05
000300 70 b7 ab 37 d1 6f a8 37 ec a8 97 b7 44 92 c7 b7
       2.0470208e-05 2.007923e-05 -1.8079263e-05 -2.3790759e-05
000310 1f c8 b6 b7 d5 4d d6 36 1e 66 52 37 c3 c7 3a b8
       -2.178928e-05 6.386758e-06 1.2540751e-05 -4.45319e-05
000320 69 40 bc b5 1c 7b cb b6 45 2a 14 37 72 b6 0c b7
       -1.4025837e-06 -6.0642033e-06 8.831329e-06 -8.387129e-06
000330 63 3f 1c 37 af 47 d7 b7 54 d2 90 37 c5 c1 6d 37
       9.313083e-06 -2.5663378e-05 1.726408e-05 1.4171416e-05
000340 36 c9 60 b7 a9 fe 14 38 73 72 e6 b6 8e b8 7a b7
       -1.33982885e-05 3.552312e-05 -6.867858e-06 -1.4944131e-05
000350 7c 1b 2b 37 67 8d 2d b7 2f e6 11 37 7d bc 89 b6
       1.01987935e-05 -1.0344526e-05 8.696267e-06 -4.104861e-06
000360 4d dd 02 b6 65 36 1a b7 97 e8 0a b7 f1 52 7a 37
       -1.9500324e-06 -9.19178e-06 -8.279595e-06 1.49204725e-05
000370 8e ad 3f b7 34 93 00 b6 9c de 55 b7 1e d7 db 34
       -1.1424896e-05 -1.915917e-06 -1.274762e-05 4.0948447e-07
000380 a1 73 04 b7 f8 df 30 38 dd 84 af 36 f5 c0 40 37
       -7.894735e-06 4.2170257e-05 5.2308737e-06 1.1489018e-05
000390 bd 1b 14 37 8d f2 81 33 98 78 84 35 e1 d0 5f 36
       8.827946e-06 6.05115e-08 9.869864e-07 3.3351173e-06
0003a0 ed 3e 16 37 03 97 ba 34 48 57 97 b6 eb 3c 76 b7
       8.955348e-06 3.4755075e-07 -4.5103116e-06 -1.4676926e-05
0003b0 1c 11 d7 b1 b3 93 c5 b6 3b 39 34 37 de a7 35 b7
       -6.2592687e-09 -5.888252e-06 1.0742161e-05 -1.0827525e-05
0003c0 ea ec 1e b7 dd 8d 80 37 89 0d 28 36 57 9b f8 37
       -9.472695e-06 1.532485e-05 2.504183e-06 2.963624e-05
0003d0 09 c7 47 37 80 17 a8 35 3f e4 82 36 78 c9 ed 36
       1.1907666e-05 1.2523815e-06 3.9008733e-06 7.0866045e-06
0003e0 25 34 b1 36 64 34 28 b8 b5 73 2c b7 f1 8b e1 b6
       5.2810815e-06 -4.0103114e-05 -1.0278939e-05 -6.721814e-06
0003f0 5b 4c 13 b6 87 5a af b7 92 4d d5 37 52 66 4e b7
       -2.1949152e-06 -2.090378e-05 2.54277e-05 -1.230238e-05

bias f4 [128]
000000 00 61 dd af 1e 8d 85 32 2d e7 87 b0 9d 06 cc ae
       -4.0268588e-10 1.554741e-08 -9.888247e-10 -9.278021e-11
000010 d2 76 42 2f ff 70 89 30 77 2b a7 32 aa c8 96 2f
       1.768641e-10 1.0000177e-09 1.9461124e-08 2.7427421e-10
000020 17 49 0b 30 e1 7e d5 31 8f b2 bc 2e 27 1b 74 ac
       5.067177e-10 6.2135403e-09 8.5809686e-11 -3.4689558e-12
000030 43 13 f7 b0 6e ac 4a 31 e6 24 24 b1 53 8d 94 b0
       -1.797709e-09 2.9492884e-09 -2.3886115e-09 -1.0808584e-09
000040 61 37 81 af 3f d7 6a 30 d1 56 a8 30 29 34 19 2f
       -2.3504312e-10 8.5434587e-10 1.2248283e-09 1.39338e-10
000050 6d 3c 2d 30 34 73 95 2f b2 96 64 31 87 51 53 30
       6.3022904e-10 2.71848e-10 3.3264027e-09 7.687721e-10
000060 b2 8b 01 2f 95 18 9c 2f 8f 6f b5 30 50 ac 7b af
       1.1782111e-10 2.83937e-10 1.320119e-09 -2.2889535e-10
000070 af 90 c5 af 93 5b b1 ad 6e 87 42 2f 03 f4 85 b1
       -3.5936895e-10 -2.0163237e-11 1.7692312e-10 -3.8985504e-09
000080 16 19 e0 af 1e d5 19 31 58 66 26 2f 1a 4d 75 b1
       -4.0763187e-10 2.2385573e-09 1.5133972e-10 -3.569602e-09
000090 e0 6a 03 30 9b 49 e8 af 50 90 d5 a8 17 c4 e3 30
       4.78094e-10 -4.2252854e-10 -2.3710336e-14 1.6572156e-09
0000a0 cc fe 04 30 77 98 4d b0 0e 41 c5 af f9 12 a6 b0
       4.838341e-10 -7.479523e-10 -3.5880315e-10 -1.2083482e-09
0000b0 39 56 e6 2e 22 d5 22 b0 fb 4f fe b0 41 74 15 b2
       1.0474505e-10 -5.9238137e-10 -1.8503664e-09 -8.6993746e-09
0000c0 a1 40 ce 2f 8d 72 a2 b0 1b de 0e b0 14 5a a5 b0
       3.7517103e-10 -1.1819609e-09 -5.197493e-10 -1.2030932e-09
0000d0 72 73 0c 31 9f 49 2c 30 7d ae b6 31 11 86 03 31
       2.0438304e-09 6.267786e-10 5.316734e-09 1.9139217e-09
0000e0 0e 1c 12 af 9c d6 eb b0 61 93 a0 b0 96 74 0b 2f
       -1.328859e-10 -1.7159496e-09 -1.168342e-09 1.2683396e-10
0000f0 a6 8c 83 31 b3 e8 12 b0 da 2a e2 2f f5 87 3b 2f
       3.8285917e-09 -5.3445176e-10 4.1139608e-10 1.7055853e-10
000100 9c 7b 02 b0 df 16 52 b0 40 be af ad 2f 95 1a b1
       -4.7469384e-10 -7.6430057e-10 -1.9979685e-11 -2.249475e-09
000110 c0 a2 e4 30 9a 1c 31 b1 76 9d 88 31 03 92 af 30
       1.663544e-09 -2.5773148e-09 3.976022e-09 1.2774425e-09
000120 a0 a1 4f 30 1c ff 29 af 66 28 40 b0 2e 5f 2e b0
       7.5535844e-10 -1.5461094e-10 -6.99066e-10 -6.343609e-10
000130 ab 8e 3c 30 90 83 a7 2f 20 8b b0 b0 fd 15 a0 b0
       6.8596745e-10 3.0470604e-10 -1.2845227e-09 -1.1647782e-09
000140 2e bc 0e 32 9d 3b f0 b0 eb 97 87 b1 4a 23 b4 b0
       8.308275e-09 -1.7479241e-09 -3.946288e-09 -1.3106753e-09
000150 20 9e 4d 2f 29 71 0d 31 b7 3d 89 2f 69 b3 68 30
       1.8700819e-10 2.0582525e-09 2.4964006e-10 8.4656065e-10
000160 8c 8e 84 af 1f 2f 94 af 7d 6e 19 b0 9c f3 5e 2f
       -2.4111946e-10 -2.6954525e-10 -5.581809e-10 2.027733e-10
000170 d3 ba 7c 2f cb af 0c 2e 62 c1 37 2f 81 af a6 b0
       2.298564e-10 3.198845e-11 1.6712456e-10 -1.2127971e-09
000180 4d 56 4d 31 74 10 ba 2f d0 ef 53 31 e7 f8 2f b0
       2.9880483e-09 3.3844894e-10 3.0840859e-09 -6.401834e-10
000190 ec ca f7 b0 4f 81 85 30 63 24 02 b2 07 a9 73 30
       -1.8029289e-09 9.713775e-10 -7.575269e-09 8.864309e-10
0001a0 a1 e5 95 be 30 73 09 31 9e a0 5f b1 d2 c3 be b0
       -0.29276755 2.00016e-09 -3.2542071e-09 -1.3879975e-09
0001b0 ff 43 c7 30 1e d3 a2 3e ae 24 f1 af a5 ea db 2f
       1.4498481e-09 0.31801695 -4.3863707e-10 4.0002593e-10
0001c0 71 93 13 31 cd dc 5a b1 3f e3 52 af 28 2b 0c af
       2.1475126e-09 -3.1848686e-09 -1.9180123e-10 -1.2748258e-10
0001d0 6e 71 bb 30 93 a7 59 2e 78 c3 ac ae 3e b3 97 b0
       1.3638279e-09 4.9488923e-11 -7.856377e-11 -1.103764e-09
0001e0 85 1b 00 31 cc 5e 96 2f c9 5c aa 31 2a 2e 20 2f
       1.8642095e-09 2.7352198e-10 4.9581996e-09 1.4568316e-10
0001f0 66 04 6f 30 96 16 5b b0 e4 be 5e b1 66 1a b4 30
       8.6953944e-10 -7.970383e-10 -3.241376e-09 1.3104227e-09

weight f4 [128]
000000 4e ad 65 37 a9 75 db 37 fe 1d 06 37 64 da 67 b7
       1.3689814e-05 2.6161624e-05 7.9940055e-06 -1.3819521e-05
000010 90 1d 98 b7 1f 2b 30 38 4d 8d cb 37 3b ca 0b 36
       -1.8133578e-05 4.200183e-05 2.4265284e-05 2.0830328e-06
000020 c1 61 e4 b6 6c 1d 5d b6 e4 98 e6 37 31 39 2a 36
       -6.8063096e-06 -3.2948692e-06 2.7489332e-05 2.5365264e-06
000030 96 1f 43 b7 6d 56 7a 37 4e 55 c6 b6 47 3d a5 36
       -1.163026e-05 1.4921284e-05 -5.9107906e-06 4.924517e-06
000040 50 a2 4f b7 59 5d 87 b6 41 d5 5d b7 ed 27 4b b7
       -1.2375953e-05 -4.0341806e-06 -1.32222785e-05 -1.2109039e-05
000050 c2 3f 90 b6 d2 03 00 37 35 3d 42 b7 44 82 1e 37
       -4.298957e-06 7.630284e-06 -1.1577552e-05 9.447864e-06
000060 cf b3 08 b7 dc e6 f5 b7 1d 22 aa 37 d4 22 1b 37
       -8.148097e-06 -2.9313778e-05 2.0281464e-05 9.246829e-06
000070 e9 a2 94 b6 c1 94 db 35 11 0a fb 36 0d 30 8d b7
       -4.429709e-06 1.6360065e-06 7.481555e-06 -1.6830885e-05
000080 e0 e7 1c b5 bf d3 26 b4 c7 4b a4 b6 c0 03 b5 b6
       -5.845195e-07 -1.5536988e-07 -4.8964025e-06 -5.394657e-06
000090 76 4f d7 b6 d1 86 1f b7 2c 0b 04 37 ce 9f dc b6
       -6.41675e-06 -9.508528e-06 7.870414e-06 -6.5751146e-06
0000a0 b5 48 e7 37 60 b8 bc b7 01 4a d6 b6 a9 9d 48 b6
       2.7571203e-05 -2.2497203e-05 -6.386312e-06 -2.9894093e-06
0000b0 f1 30 10 36 f0 04 3a 36 71 10 4d 36 d8 75 f0 36
       2.148616e-06 2.7719034e-06 3.055695e-06 7.166276e-06
0000c0 e4 d4 4e b6 ee e0 c3 b7 1c a2 e9 37 8a c8 f8 b6
       -3.082031e-06 -2.3350553e-05 2.7851253e-05 -7.4143218e-06
0000d0 79 11 cb 37 1e d3 3e b7 cf e5 53 34 f0 d2 26 b7
       2.4207622e-05 -1.1374037e-05 1.973451e-07 -9.943484e-06
0000e0 3c 82 3d 38 c9 f9 87 37 9c 70 b4 b3 6f d6 09 36
       4.51824e-05 1.620957e-05 -8.402387e-08 2.0539408e-06
0000f0 83 e8 77 b6 5f 55 c9 b5 bc 91 9b b7 2d d8 a3 37
       -3.6941208e-06 -1.5000513e-06 -1.8545303e-05 1.9531779e-05
000100 89 f5 69 34 58 e2 70 37 f3 13 82 37 44 68 97 b7
       2.1789141e-07 1.43578145e-05 1.5506497e-05 -1.8049155e-05
000110 8e 42 bd b5 a3 59 61 36 eb 10 be b7 22 ba b6 36
       -1.4100967e-06 3.3579788e-06 -2.2657643e-05 5.4456914e-06
000120 c6 41 6c 36 9f 49 90 37 bd e9 29 b7 3a 8f 6e 34
       3.5205026e-06 1.720042e-05 -1.0127606e-05 2.2217583e-07
000130 91 cb 2e 36 13 d4 6e b7 fc 96 1f 35 4a d4 27 b7
       2.6046512e-06 -1.4235283e-05 5.9451827e-07 -1.0003403e-05
000140 21 1b ca 36 ef ab 4b 37 eb d0 a0 b7 06 27 39 36
       6.0232273e-06 1.2139774e-05 -1.9170771e-05 2.7589863e-06
000150 0d 54 c0 36 6b bc d0 b7 b5 67 b8 36 26 b9 93 37
       5.7318307e-06 -2.4883271e-05 5.4957004e-06 1.7609982e-05
000160 97 d1 16 37 90 97 1b 37 3d 5d 15 b6 e5 cb d2 36
       8.989496e-06 9.274008e-06 -2.2257002e-06 6.282224e-06
000170 3a 8e d1 36 a9 73 33 b7 c8 c4 2d 37 26 bb 2b 35
       6.2452427e-06 -1.0696161e-05 1.035742e-05 6.39748e-07
000180 73 59 26 37 8d 37 ad b6 90 6b 34 37 56 6d 34 b7
       9.915198e-06 -5.1622687e-06 1.075388e-05 -1.0754293e-05
000190 8c bd a1 36 11 45 82 b7 ca 24 de 37 5a 58 0d b8
       4.82024e-06 -1.552937e-05 2.6481594e-05 -3.3699303e-05
0001a0 72 85 ab 3e 47 04 20 b7 00 80 65 b6 3f ca aa 36
       0.33500248 -9.537739e-06 -3.4198165e-06 5.0899394e-06
0001b0 35 9a 2f b6 bc 02 af 3e 80 b7 85 37 54 f9 82 36
       -2.6166792e-06 0.34181774 1.5940284e-05 3.9033275e-06
0001c0 15 c0 22 b5 2e 7b f1 b6 0e b7 01 b5 07 ff e8 b7
       -6.062922e-07 -7.1966997e-06 -4.8322624e-07 -2.7775312e-05
0001d0 dc 74 c7 b7 e8 e5 9d 36 dd aa 81 33 45 42 2c b7
       -2.3777066e-05 4.705729e-06 6.0381105e-08 -1.02674285e-05
0001e0 78 5d 8f 36 01 35 9a b3 56 19 05 38 5c 05 ae b7
       4.2726133e-06 -7.180825e-08 3.1733267e-05 -2.0744912e-05
0001f0 32 50 f4 b7 30 cb 2b 38 86 15 ed b6 84 8a 48 37
       -2.912441e-05 4.095881e-05 -7.065656e-06 1.195318e-05

bias f4 [128]
000000 96 1b 44 36 f6 fc a5 b8 11 8f 37 b8 9c e5 73 b6
       2.9222333e-06 -7.914931e-05 -4.376384e-05 -3.6343472e-06
000010 ce e2 c8 b6 34 95 a1 b8 17 c3 a8 37 9d 19 a6 37
       -5.986868e-06 -7.7048695e-05 2.0118006e-05 1.980067e-05
000020 9b bc 62 b4 6f 8f 3b 37 0d 79 fc b7 fe cd 36 b8
       -2.1116504e-07 1.1179464e-05 -3.009711e-05 -4.3584027e-05
000030 48 b7 55 b8 fe e8 d6 b7 0a 4a 28 37 9d 49 1a b6
       -5.095385e-05 -2.5619283e-05 1.0030819e-05 -2.2990637e-06
000040 54 db a2 b7 7e c1 d8 38 86 8b 2d 37 66 54 e1 b7
       -1.9414038e-05 0.00010335723 1.0344089e-05 -2.6861391e-05
000050 29 78 25 38 71 14 52 b7 fe b0 1b 36 5b 16 a8 b8
       3.9450973e-05 -1.2521735e-05 2.3199823e-06 -8.015028e-05
000060 55 05 87 b5 a8 3e 9f b6 68 06 4f b8 c3 2c b0 b8
       -1.0059836e-06 -4.7458634e-06 -4.9358612e-05 -8.4006715e-05
000070 e5 72 c3 b5 f1 a7 a2 38 72 0f 61 b6 ef 5b 98 b7
       -1.4562071e-06 7.7560435e-05 -3.3536603e-06 -1.8162622e-05
000080 40 55 94 38 f4 83 48 b7 d1 a2 b3 b7 77 85 31 38
       7.073069e-05 -1.1951652e-05 -2.141428e-05 4.2324387e-05
000090 cd a5 cc b7 a8 b5 85 37 9d f0 b0 b8 5f 27 91 b8
       -2.4395902e-05 1.5939426e-05 -8.437152e-05 -6.921472e-05
0000a0 f2 34 bc b6 d5 78 c9 b7 90 e6 0e 38 7d 07 aa 37
       -5.6090003e-06 -2.4017334e-05 3.4070166e-05 2.0269066e-05
0000b0 e9 de f6 b7 c9 72 44 b8 89 07 b5 38 84 f9 fb 36
       -2.9429286e-05 -4.6836944e-05 8.632156e-05 7.5094304e-06
0000c0 6f 40 0c b8 3b ee 71 b7 84 ae d1 38 d2 dc e8 37
       -3.343861e-05 -1.4420187e-05 9.998403e-05 2.7759383e-05
0000d0 57 cc 1a 38 71 66 95 b7 35 31 b3 38 ef b4 7a b7
       3.6906767e-05 -1.7809887e-05 8.544551e-05 -1.4943288e-05
0000e0 af bf ff b6 34 4f 0b b8 66 e2 c0 38 60 27 33 37
       -7.621907e-06 -3.3213946e-05 9.1974434e-05 1.0678399e-05
0000f0 b5 8a 71 b8 e8 c2 c0 b7 08 2f 62 b7 4b ae 2c 38
       -5.758806e-05 -2.2978944e-05 -1.34816e-05 4.117032e-05
000100 8f bd ea 37 2b 88 dc 37 0f 68 15 b7 a7 22 dc 38
       2.7983244e-05 2.6289452e-05 -8.90532e-06 0.00010496872
000110 ee 4e c8 b7 97 b8 34 b8 46 8d a8 b8 ea e4 1d b8
       -2.3878612e-05 -4.3087257e-05 -8.0371785e-05 -3.764491e-05
000120 ff 84 49 38 d2 eb 9b b8 92 95 e7 b7 8b 2f af b7
       4.8045997e-05 -7.434901e-05 -2.7606995e-05 -2.0883765e-05
000130 ad 11 0f 38 84 8e 0a 38 70 4f ae b7 97 f7 44 b8
       3.411032e-05 3.3034492e-05 -2.0779407e-05 -4.6960628e-05
000140 0d c9 82 38 70 c5 32 38 e6 a0 fa b7 a6 04 23 38
       6.236332e-05 4.2622385e-05 -2.9877247e-05 3.8866558e-05
000150 b1 c6 c4 37 fa 04 13 b8 bb 52 62 b7 6b a9 b1 b6
       2.3457544e-05 -3.5052166e-05 -1.3489912e-05 -5.294734e-06
000160 42 aa 8a b6 bf 6d ea 35 83 41 4a b8 c5 cb 6e b6
       -4.132541e-06 1.7466299e-06 -4.8221566e-05 -3.5583373e-06
000170 12 c8 c7 35 52 73 0d b8 bf 15 16 b7 59 7e ac 37
       1.4884884e-06 -3.372442e-05 -8.94576e-06 2.0562833e-05
000180 72 59 d9 b7 b7 42 3c b8 25 06 d7 b6 1b 04 7e 38
       -2.5910067e-05 -4.4884826e-05 -6.4082146e-06 6.0562143e-05
000190 2c 27 a7 38 7b c0 1b 38 4a 76 89 b7 53 4f 35 b6
       7.970477e-05 3.713414e-05 -1.6386755e-05 -2.7017275e-06
0001a0 bf 28 aa bd 19 f2 09 38 ff e7 84 b8 7d 50 ed 35
       -0.08308553 3.2888816e-05 -6.337463e-05 1.7681301e-06
0001b0 9f d9 45 38 49 14 e5 3d b6 92 23 38 d9 5b 47 b7
       4.7171136e-05 0.1118551 3.8998864e-05 -1.1882709e-05
0001c0 72 08 1a b8 b7 22 bc 36 38 e2 bc b7 44 58 6b b8
       -3.6724326e-05 5.606878e-06 -2.2516688e-05 -5.611057e-05
0001d0 bf 15 46 32 07 bc 3d 38 de 4a 0f b6 d5 17 d2 37
       1.1530061e-08 4.5236226e-05 -2.135224e-06 2.5045048e-05
0001e0 4a 88 4c b8 08 f2 d2 b7 18 a0 ad b8 4d 22 0b b7
       -4.876432e-05 -2.5146655e-05 -8.2791026e-05 -8.293032e-06
0001f0 05 20 01 38 ca bb 92 b8 22 53 2d 38 76 fd 6f b8
       3.0785817e-05 -6.996801e-05 4.1323838e-05 -5.7218094e-05

running_mean f4 [128]
000000 fd eb 9a bb 27 3c 6d 3c 48 8a 61 be 72 bd 8f be
       -0.004727839 0.0144796735 -0.22025406 -0.28074223
000010 b9 e1 93 3e 6c 24 34 3e 5d da a3 be 11 c7 15 bd
       0.2888315 0.17592019 -0.32002535 -0.036566798
000020 a2 9a 50 3e e0 ad 2a be e7 3a 92 3e 25 53 40 be
       0.20371488 -0.1666789 0.28560564 -0.18781717
000030 35 95 10 be aa bc 32 bc fe 26 23 be ea 70 96 bd
       -0.14119418 -0.010909239 -0.15932843 -0.073457554
000040 32 23 6a 3d 6d f3 32 be 75 02 6c 3e 43 99 3e 3e
       0.05716247 -0.17475672 0.23047812 0.18613152
000050 99 c4 91 bc 98 7c 64 bd b1 0b 14 bc 9b 00 2a be
       -0.01779394 -0.055782884 -0.009035991 -0.16601793
000060 70 38 45 be 97 46 9b bc 4d 9d 18 bd c2 57 d8 bc
       -0.1925981 -0.018954558 -0.03725939 -0.026409034
000070 42 ed 62 be bb 0e 16 3e 7b b5 04 3e f6 8b 4f be
       -0.22160819 0.14654057 0.12959854 -0.20268235
000080 76 25 af 3e ed 62 74 be 59 57 d1 3d 3c dd 90 3e
       0.34208268 -0.23865862 0.10221738 0.28293788
000090 37 23 f9 3d a7 05 7f be e3 af 82 3e 1c 8f 95 3e
       0.1216492 -0.249045 0.25524816 0.29210746
0000a0 19 22 30 3e 5c e5 c7 3d 08 6f 37 3d 89 12 ee 3d
       0.17200507 0.09760544 0.044783622 0.11624629
0000b0 e3 e0 75 3e c7 31 59 3e 1b 81 ea bd 5e 57 6a 3e
       0.24011569 0.21210395 -0.11450406 0.2288489
0000c0 3d cc 42 be fb d9 27 3e 3d 4b 07 be 6a f1 53 3e
       -0.19023223 0.16391747 -0.13212295 0.20697561
0000d0 7a 28 d7 3d b9 83 a2 bd f0 48 2b bd 1a 8e 34 3e
       0.10505767 -0.0793528 -0.041817605 0.17632332
0000e0 eb 2a f9 3d c2 f6 14 3d 31 0f db 3d cf 82 25 bd
       0.12166389 0.03636814 0.10696257 -0.040407952
0000f0 b2 01 8c 3e 74 57 a3 be 8c 30 71 3e 2c 37 38 bd
       0.27345043 -0.3190266 0.23553675 -0.04497449
000100 61 90 76 be 18 e0 a4 3c 7a cb 9b bd 50 06 8a 3e
       -0.24078514 0.020126387 -0.076071694 0.2695794
000110 a5 2a e4 bd 5b 11 0f 3d d8 63 36 3e f8 61 6a be
       -0.11140946 0.03492866 0.17811525 -0.22888935
000120 72 7d ab bd b5 2d 4a 3e f1 e8 09 3e 2c 17 16 be
       -0.08373536 0.19743998 0.13467766 -0.14657277
000130 ce 9e 16 3e ad 81 35 bd 71 9a 6d 3d 5c 24 4d be
       0.14709017 -0.04431312 0.058008615 -0.20033401
000140 6e 97 42 3c 8c a6 32 3e b2 8d 6f be 77 ea 92 3e
       0.011876924 0.17446345 -0.23393896 0.28694507
000150 cd dc a6 bd dd da 0b 3c e9 a9 81 be 9b 57 59 be
       -0.08147583 0.008536068 -0.25324944 -0.21224825
000160 fc d5 84 3d cd 60 23 be b7 9d b3 3d c4 13 9c 3c
       0.06486127 -0.15954895 0.08770316 0.019052394
000170 87 f8 00 3e 0b ed 90 3e 97 d4 d2 bd 0a cc 2d 3d
       0.12594806 0.2830585 -0.102944545 0.042430915
000180 c1 be 4e 3e 45 81 20 bd 9a 1e 51 be 44 93 37 3d
       0.20189954 -0.03918578 -0.2042183 0.044818178
000190 df cf 52 bd e9 54 12 3e 95 44 96 bd 39 e9 1c 3e
       -0.051467773 0.14290203 -0.073373 0.15323342
0001a0 77 ea 4b be 5c ba b7 3d 0f f1 97 bd 05 cb ab 3d
       -0.1991366 0.08971092 -0.07419025 0.08388332
0001b0 3e e6 36 be 27 68 78 3e e4 71 1b 3d ef 9c 88 3d
       -0.17861268 0.24258481 0.03795041 0.06670558
0001c0 d6 39 b1 bd b6 67 a1 3e 52 88 8e bd 69 73 84 be
       -0.086536095 0.31524438 -0.06959595 -0.258693
0001d0 eb 42 35 be 66 23 b4 bd 2e a2 59 3e 9c a4 85 3e
       -0.17701308 -0.08795814 0.21253273 0.2610215
0001e0 c5 2c 8b 3e 21 07 77 be 7f 35 ba bd 2b ba 11 3c
       0.27182594 -0.24123813 -0.09092235 0.008894484
0001f0 9d 89 53 3e 1d 58 19 3e 85 52 b6 bd 77 3f db 3d
       0.20657964 0.14975019 -0.08902458 0.10705464

running_var f4 [128]
000000 0d 91 72 3e 1c 63 ff 3c fa f1 2a 3c 29 68 59 3d
       0.23688145 0.031175189 0.010433668 0.05307785
000010 58 31 0f 3e 59 14 33 3c 98 3b c0 3b 89 bf 00 3e
       0.13983667 0.010930144 0.005866479 0.12573065
000020 fc 9d 9a 3c 66 89 2e 3d 93 19 0f 3e 19 1b 02 3e
       0.018874161 0.042611502 0.139746 0.1270565
000030 b0 5e 0b 3e 42 58 91 3d ca ff 5f 3c 7b 6b 04 3c
       0.13610339 0.07096912 0.013671825 0.008082266
000040 e1 11 99 3c 56 38 c6 3d 5c fb 65 3e 43 86 95 3d
       0.018685283 0.09678714 0.22459167 0.07300999
000050 63 b0 96 3e 7f 85 47 3c a1 5c b0 3b d5 ee 35 3e
       0.29431447 0.012177824 0.005382136 0.17766888
000060 81 ce 7d 3d 61 3f 71 3d 27 62 24 3d 90 5a 5d 3e
       0.061964516 0.058898333 0.040132668 0.21616578
000070 3a 6f 39 3d ad f5 e8 3d 1b 36 b5 3d ff 63 92 3b
       0.04527209 0.11374984 0.088482104 0.004467487
000080 56 72 5d 3e 2d a3 a4 3c cc 43 67 3e 33 c8 54 3c
       0.21625647 0.02009734 0.22584456 0.012987184
000090 82 7e 3f 3e 54 41 84 3e e3 14 00 3d 7f 33 3d 3e
       0.18700603 0.2583109 0.03126992 0.18476675
0000a0 7e 1f 3f 3e d1 0d d3 3d c7 b8 3c 3e 59 d4 0f 3e
       0.18664357 0.1030537 0.18429862 0.14045848
0000b0 a3 be 32 3c ed 2a ad 3d 3d 93 86 3e 30 af b2 3b
       0.010909709 0.08455453 0.2628421 0.005453013
0000c0 43 c2 22 3e 4b 48 00 3e f8 f5 c6 3c 4c d1 c4 3c
       0.15894417 0.12527578 0.024287209 0.024025582
0000d0 53 29 51 3d 1c 2d 43 3c 8e a2 8e 3b 06 bb 71 3c
       0.0510648 0.01191261 0.004352874 0.0147540625
0000e0 24 fd 9a 3e fb 31 9a 3c 12 cb 24 3d 9b 61 a9 3c
       0.30271256 0.01882266 0.040232725 0.020676425
0000f0 1f 63 3d 3d fa 56 aa 3d a0 eb 82 3d 83 97 8a 3e
       0.046237107 0.08317371 0.06392598 0.2706872
000100 b0 7f 3b 3e 16 e3 2e 3d 7c 36 a0 3e c7 6c ba 3c
       0.18310428 0.042697035 0.31291568 0.022756947
000110 b7 4b 1b 3e e7 76 51 3c 70 93 67 3c f9 cb 6f 3c
       0.15165602 0.012784696 0.014134273 0.014636033
000120 3a 82 02 3e 11 36 46 3e 3d e6 22 3d a1 8f df 3c
       0.1274499 0.19356562 0.039770354 0.027290167
000130 8e 6c 2f 3e 5d 3d 38 3d 3a 89 d4 3d 6e 7b 23 3d
       0.17131254 0.044980396 0.103777364 0.039912634
000140 55 b9 a4 3c e1 ab ec 3c 32 e4 9c 3c 92 d2 f5 3c
       0.020107904 0.028890552 0.01915178 0.030007634
000150 e7 47 00 3d 10 2b b1 3d 8d 13 5f 3d f7 a0 2b 3d
       0.03131857 0.08650792 0.054462004 0.041901555
000160 d3 ea 51 3e d6 62 0e 3e fc 47 c5 3c 9d 20 41 3e
       0.20499735 0.1390489 0.024082176 0.18860097
000170 1d fe 67 3e 6c 2f ad 3d c4 c9 a6 3c 1e ea 45 3c
       0.2265553 0.08456311 0.020359881 0.012079744
000180 f8 97 75 3c ec 6e b9 3d 0a 88 48 3d 8b 78 af 3c
       0.014989845 0.0905436 0.048957862 0.021419784
000190 0a fc 67 3c e7 4e 7d 3d 43 53 87 3c 6e db 7a 3d
       0.014159212 0.061842825 0.016519194 0.06124442
0001a0 e1 bf 3c 3c d5 cd 4f 3d 40 f1 aa 3c 98 b2 36 3c
       0.011520357 0.050733406 0.02086699 0.0111509785
0001b0 73 1e 07 3d 83 5a d7 3c ef fa b6 3d 1b 05 0a 3d
       0.032988023 0.026288277 0.089345805 0.033696275
0001c0 a8 c0 6c 3c 04 8f c5 3d d4 7c b3 3d 36 d1 e6 3d
       0.01445023 0.09646419 0.087640435 0.112703726
0001d0 33 c8 5e 3e 72 66 80 3e bf c5 56 3e e0 5b 8e 3c
       0.21756057 0.2507816 0.20973872 0.017377794
0001e0 02 36 66 3d bc 1d bd 3d c6 d1 e8 3b 88 78 f4 3d
       0.05620385 0.09234187 0.007105085 0.11937052
0001f0 5f 9a 6e 3e de 9f 0e 3e 57 de 60 3c d1 7b 3a 3d
       0.23301075 0.13928172 0.013724885 0.045528237

weight f4 [128, 128]
000000 9a bb 6d b7 5f e8 fb b4 3b cb 3d b7 ba 86 23 37
       -1.416998e-05 -4.6921465e-07 -1.1312596e-05 9.746926e-06
000010 1d 09 34 37 60 5d eb 37 c1 20 1f b6 73 fd 1e 38
       1.0730958e-05 2.8057664e-05 -2.3711912e-06 3.790618e-05
000020 25 a0 c5 b6 3f e7 48 37 dc d5 4c 37 44 34 5a 36
       -5.889701e-06 1.197477e-05 1.2209141e-05 3.2514954e-06
000030 50 9d 81 b7 1a 38 9d 37 98 1f 6a b7 6f dc 0c b7
       -1.5451253e-05 1.8741983e-05 -1.3954843e-05 -8.395974e-06
000040 04 f2 b7 37 43 ac a1 b7 c6 54 13 37 37 7d 1c b7
       2.1927997e-05 -1.9272911e-05 8.781621e-06 -9.327478e-06
000050 a5 6c bd b7 8d 7f 88 36 9b 86 21 38 24 2e 9a 37
       -2.2581147e-05 4.0679647e-06 3.8510752e-05 1.8379716e-05
000060 92 c2 48 b6 24 a6 76 b7 69 c7 3c 37 dc 44 a3 37
       -2.9915577e-06 -1.4701425e-05 1.1252102e-05 1.946318e-05
000070 9c 87 6a 37 4f 6e 08 37 63 36 a1 b7 db ff 14 36
       1.3979061e-05 8.131915e-06 -1.9218021e-05 2.2202646e-06
000080 72 6f d7 35 8f bb 54 37 d2 05 2d 37 36 00 99 b6
       1.6051183e-06 1.2679854e-05 1.0312959e-05 -4.55978e-06
000090 62 26 37 37 8a 33 9f 36 42 95 bb b6 2f 1f fb b6
       1.0916587e-05 4.744569e-06 -5.59041e-06 -7.484013e-06
0000a0 3d 0a 80 37 de f6 dc 36 50 42 1d b5 df ce e4 b6
       1.5263557e-05 6.58525e-06 -5.8583555e-07 -6.8190125e-06
0000b0 34 74 21 b7 79 5b b9 b6 aa dc eb b6 c9 c6 49 37
       -9.6234035e-06 -5.5240785e-06 -7.0292344e-06 1.2026817e-05
0000c0 60 cc c5 b7 96 85 c1 b5 aa d4 c5 b7 52 d0 ce 36
       -2.35794e-05 -1.4418499e-06 -2.358326e-05 6.16353e-06
0000d0 22 10 68 b6 bc 2f 91 b7 0a e1 d3 36 90 c7 f4 b6
       -3.4580085e-06 -1.7307575e-05 6.314488e-06 -7.294999e-06
0000e0 23 d1 4f 36 5e 76 01 38 96 ca 08 b7 ec 1d 3c 37
       3.0967137e-06 3.0866235e-05 -8.1534e-06 1.121264e-05
0000f0 93 51 97 b5 c2 91 09 b6 44 42 4d b7 94 24 3d b5
       -1.1274118e-06 -2.0499433e-06 -1.2234381e-05 -7.0461215e-07
000100 bc ee a0 37 d4 27 44 b7 25 d1 62 b4 4f 9d 1b 37
       1.9184656e-05 -1.1691784e-05 -2.1123977e-07 9.275346e-06
000110 e0 e6 23 b6 f6 dc 54 b6 db ac c3 b7 5c 30 9a 37
       -2.442328e-06 -3.1719078e-06 -2.3326304e-05 1.838075e-05
000120 0a dc eb 35 ad 1d 16 37 1a aa 94 b6 98 8b b7 b5
       1.7572904e-06 8.947606e-06 -4.430546e-06 -1.367519e-06
000130 9a df 4d b7 26 e1 8f b6 eb c0 bb b7 a5 fd 0e b7
       -1.22710135e-05 -4.287943e-06 -2.2381972e-05 -8.522916e-06
000140 41 7e 1b b7 54 47 ca 37 ef 36 87 37 b1 5e 3d 36
       -9.268116e-06 2.4113491e-05 1.6118835e-05 2.8218312e-06
000150 54 d6 c7 36 56 f1 8b 37 24 17 49 34 f4 97 b0 b7
       5.9556132e-06 1.6682472e-05 1.8728002e-07 -2.1051594e-05
000160 6f ab 0f b7 1c 44 80 35 d6 e8 bf 34 2e 1e ea b5
       -8.563379e-06 9.556566e-07 3.5745933e-07 -1.7443142e-06
000170 c0 e2 e5 37 e9 86 89 37 41 ee 57 b7 16 5f 3a 37
       2.7404516e-05 1.6394495e-05 -1.2870471e-05 1.1108603e-05
000180 02 3b 12 37 e8 8d f2 b6 f0 91 fb 35 95 d6 5c b6
       8.716017e-06 -7.228682e-06 1.8743431e-06 -3.2907458e-06
000190 44 02 68 37 36 c0 9e b6 5c 4a 20 b7 9d 38 02 37
       1.3828805e-05 -4.7311432e-06 -9.554056e-06 7.761785e-06
0001a0 d9 f7 09 b7 53 2f 2e 36 46 69 6d 37 ed 0c 48 36
       -8.223543e-06 2.5955567e-06 1.4150812e-05 2.9809846e-06
0001b0 78 82 54 37 c8 5a 2a 35 c7 be af b7 9c 86 e6 37
       1.2666562e-05 6.346204e-07 -2.0950463e-05 2.7480819e-05
0001c0 a1 cd 7d 36 89 6e 8c 37 ee 85 d3 b6 33 a9 80 b4
       3.781963e-06 1.6740772e-05 -6.3038815e-06 -2.3964967e-07
0001d0 93 85 88 b5 4a cb e3 b7 b3 7f 08 37 46 ec 32 37
       -1.0171665e-06 -2.7155173e-05 8.135964e-06 1.06646385e-05
0001e0 ce 6d 9e 36 42 9a a2 37 3a 4f c1 37 4d 3e 01 b7
       4.72155e-06 1.9383737e-05 2.3044286e-05 -7.703505e-06
0001f0 27 fa 95 36 e5 c0 b0 37 95 19 0e 37 ac 85 63 b7
       4.4696676e-06 2.1070658e-05 8.469816e-06 -1.3561377e-05
000200 2f a5 28 37 fd b2 13 35 f5 57 c1 b5 54 7f 19 b6
       1.005204e-05 5.502223e-07 -1.4405219e-06 -2.2872891e-06
000210 18 6a b4 36 1b 22 8b b6 1c 96 70 37 08 1c 85 37
       5.376769e-06 -4.146493e-06 1.4340065e-05 1.5867889e-05
000220 97 84 9c b6 8f 36 58 b6 4f 3d 3e b7 cc e8 97 b7
       -4.664598e-06 -3.2218265e-06 -1.1339157e-05 -1.8109007e-05
000230 62 11 07 37 d8 26 db 36 7e a0 b1 35 cf 0d d3 b6
       8.050674e-06 6.5312306e-06 1.3234237e-06 -6.2898976e-06
000240 fc 02 d9 37 2a 64 1c 37 ad a1 18 b7 8e 22 e7 b6
       2.5869806e-05 9.321646e-06 -9.097549e-06 -6.888359e-06
000250 51 90 09 b6 a5 37 05 b7 29 38 99 36 8d 9b 77 b7
       -2.0498594e-06 -7.9403735e-06 4.5662932e-06 -1.4758564e-05
000260 ed f3 c3 37 5e 80 32 37 28 f3 65 36 4d 38 52 36
       2.3359398e-05 1.0639515e-05 3.4265195e-06 3.132521e-06
000270 4b 93 38 b7 71 97 39 b5 79 9f 50 37 50 dd 6d b7
       -1.1001549e-05 -6.9138247e-07 1.2434896e-05 -1.4177829e-05
000280 53 31 d3 b7 2f 66 00 b7 30 7f aa 37 0f 3a 16 b7
       -2.5176128e-05 -7.653186e-06 2.0324806e-05 -8.9542145e-06
000290 9f ba 07 b7 6c d5 02 36 a0 c2 b1 37 16 67 dd b5
       -8.090078e-06 1.9495737e-06 2.1190674e-05 -1.6495785e-06
0002a0 08 30 74 b7 6b 36 63 37 8b 62 e1 35 c5 6e 45 b7
       -1.45547165e-05 1.35429245e-05 1.6792486e-06 -1.1767906e-05
0002b0 d7 22 fe b5 fa 73 85 37 d8 60 99 b5 da 83 24 37
       -1.8934614e-06 1.5908841e-05 -1.1427574e-06 9.805861e-06
0002c0 eb f3 82 b5 9c fa ba 36 a8 47 61 35 b5 ce 99 b7
       -9.756744e-07 5.5724067e-06 8.3923305e-07 -1.8335277e-05
0002d0 9d 89 2b b7 38 4b b0 36 4f 69 25 38 79 09 e3 36
       -1.0224435e-05 5.2539654e-06 3.9437142e-05 6.76623e-06
0002e0 0d dd bb b6 79 90 96 b3 1c 3a ce b7 94 55 8b 36
       -5.598768e-06 -7.011199e-08 -2.4584173e-05 4.1524854e-06
0002f0 9d 23 b1 b7 9c a2 0c b6 8b fa 28 b7 c8 c9 34 36
       -2.1116628e-05 -2.0956277e-06 -1.0071914e-05 2.6939542e-06
000300 8c 70 25 b7 01 53 91 37 14 71 45 b7 b3 e0 31 b7
       -9.860971e-06 1.7323999e-05 -1.1768443e-05 -1.0602339e-05
000310 80 43 6b 35 01 ac f3 36 e8 0f c6 36 70 3a 4b b4
       8.764255e-07 7.2619882e-06 5.9027116e-06 -1.8927108e-07
000320 c8 c6 94 b6 96 5a 6e b6 69 8d ac b4 49 72 d5 b5
       -4.433885e-06 -3.5517492e-06 -3.2140386e-07 -1.5902998e-06
000330 2e 5c e1 b7 35 46 3f b7 df 34 ac b6 97 fc 2b b7
       -2.6865015e-05 -1.14008335e-05 -5.1321545e-06 -1.0251205e-05
000340 46 a1 a5 b6 ce 71 45 36 82 76 4d 37 26 21 8e 36
       -4.936158e-06 2.942153e-06 1.2246544e-05 4.2357888e-06
000350 57 ed bb 37 f3 73 97 b5 1e 69 0b 37 71 54 c2 36
       2.2402657e-05 -1.1284122e-06 8.30952e-06 5.791481e-06
000360 a4 ae ba 36 3a f9 54 b6 73 bb 88 b7 ea cf 93 b7
       5.563563e-06 -3.173553e-06 -1.6299751e-05 -1.7620583e-05
000370 24 cf 4d b7 fc c7 d2 b6 69 6d 4e b7 c1 8b 66 36
       -1.2267181e-05 -6.281769e-06 -1.2304031e-05 3.4354018e-06
000380 42 2e 4b 35 b3 fe e1 b6 b3 79 8e 37 49 dc b2 b7
       7.5690707e-07 -6.7351734e-06 1.698439e-05 -2.1321832e-05
000390 6a e6 8e b7 6a 5a 2d 37 97 ea 94 36 e1 42 65 b7
       -1.7035014e-05 1.0332655e-05 4.4380536e-06 -1.3665035e-05
0003a0 94 ec 01 b6 49 6a 29 b8 3c 1b 2f 37 f0 42 8b 35
       -1.9360205e-06 -4.0391726e-05 1.0437154e-05 1.0375788e-06
0003b0 e9 4f 05 b7 0d ba 5c 37 ed 95 b8 b7 02 77 79 b6
       -7.946023e-06 1.315634e-05 -2.2004324e-05 -3.7173163e-06
0003c0 d4 00 90 b6 c0 9f 9d b3 be 8d ed 35 b5 b7 32 b3
       -4.291631e-06 -7.3399406e-08 1.7699128e-06 -4.1610935e-08
0003d0 82 92 72 37 99 29 b5 36 95 f9 6f b7 9d 1e 1b b6
       1.44584355e-05 5.399063e-06 -1.430362e-05 -2.311462e-06
0003e0 d3 d4 71 b7 d3 a9 63 36 8e 6e 12 b7 6c 61 8a 37
       -1.4414271e-05 3.3924487e-06 -8.728019e-06 1.6496248e-05
0003f0 48 fd 83 37 4d 7b 30 b5 69 13 c2 37 67 0f 69 b7
       1.573436e-05 -6.5744536e-07 2.313564e-05 -1.3891468e-05

bias f4 [128]
000000 95 69 18 31 c9 36 49 31 2f eb 44 af 42 5f b6 2f
       2.2178928e-09 2.9280491e-09 -1.790965e-10 3.3173292e-10
000010 1e c6 a3 af 81 cb 40 b1 c1 b4 52 31 fa 2d 0b 2f
       -2.9790298e-10 -2.8055356e-09 3.0661769e-09 1.265831e-10
000020 bb 24 89 b1 76 e4 58 2e fd 26 7d b0 4e dc 4f 30
       -3.9914005e-09 4.9315628e-11 -9.209627e-10 7.5619233e-10
000030 54 68 42 2f 7d 95 47 30 dc 2d 59 b1 d0 10 95 31
       1.7681262e-10 7.2608214e-10 -3.1603724e-09 4.338382e-09
000040 24 3b 9f 31 bb 98 34 b0 6a 42 71 b1 1e b8 43 30
       4.6342326e-09 -6.570066e-10 -3.5107868e-09 7.1202233e-10
000050 06 8d 80 31 d2 77 6a b0 8e 96 bb b1 68 49 82 af
       3.741323e-09 -8.529898e-10 -5.4595324e-09 -2.369902e-10
000060 5e 88 ba af 96 72 c1 2c 4e 52 79 30 a1 7d b4 af
       -3.3930098e-10 5.4981115e-12 9.0702634e-10 -3.2831074e-10
000070 56 89 9a b0 d7 94 fb 30 8a 52 6f 31 b4 3e 13 30
       -1.1244008e-09 1.8304956e-09 3.4825995e-09 5.3567395e-10
000080 d6 8c 6e 30 88 fb 40 b3 a7 40 e0 af 0f 51 29 b0
       8.6784036e-10 -4.493225e-08 -4.07913e-10 -6.1597033e-10
000090 35 8c 77 30 f7 4d 08 31 50 ec c1 31 59 a0 48 30
       9.005732e-10 1.9834923e-09 5.643905e-09 7.2987444e-10
0000a0 b3 1d 9c 2f 8c 61 8d 32 2b ac ac ad d7 10 3b 32
       2.8397337e-10 1.645892e-08 -1.9630594e-11 1.08886615e-08
0000b0 9f f4 86 b2 5c bb 6f af 1a 57 d3 2e 52 3d 74 b0
       -1.5710894e-08 -2.1803487e-10 9.6106414e-11 -8.8853824e-10
0000c0 45 5f 2e b0 b9 ea c7 2f 0e 56 75 30 f3 6e 54 b0
       -6.343622e-10 3.636467e-10 8.925277e-10 -7.728282e-10
0000d0 4d 67 c1 31 a4 10 85 30 70 71 c8 30 79 ad c2 b0
       5.628783e-09 9.681753e-10 1.4584156e-09 -1.4164662e-09
0000e0 9e 20 92 b1 89 31 f1 b1 84 f3 f9 af 31 75 c1 b1
       -4.2528674e-09 -7.0196546e-09 -4.5465864e-10 -5.6303624e-09
0000f0 4d 6c 32 b0 4a 0c 8e 30 ef ae 89 30 5c 9a 0f b1
       -6.490993e-10 1.0335353e-09 1.0017781e-09 -2.0896982e-09
000100 e8 06 8e 31 39 5f 52 b0 1b ff c6 af 8c 37 16 b1
       4.133529e-09 -7.6532874e-10 -3.6197254e-10 -2.1859448e-09
000110 59 4e 56 30 46 23 1a b1 c4 18 d0 30 11 9f 09 b1
       7.7964085e-10 -2.243e-09 1.5141031e-09 -2.0026543e-09
000120 02 cb 1a af fc 65 cb 30 ac 84 44 2e d3 55 09 30
       -1.4078341e-10 1.479918e-09 4.4683077e-11 4.9962273e-10
000130 7c ec de 30 1b 16 1f 2e 93 b7 2f af ae a2 2f 2f
       1.6219839e-09 3.6172048e-11 -1.5981376e-10 1.5973953e-10
000140 8c 1b 9c af 76 14 97 b2 92 bb 8b 30 dc 13 38 31
       -2.8395808e-10 -1.7588018e-08 1.0166892e-09 2.6786813e-09
000150 a2 8d 86 b0 92 cc 14 31 2d bc 02 30 5e ae 27 2f
       -9.790038e-10 2.165312e-09 4.756114e-10 1.5250509e-10
000160 fd 95 9d 30 0a f1 07 30 5b 68 91 b1 87 8e da 30
       1.1465883e-09 4.945525e-10 -4.2319193e-09 1.5902096e-09
000170 af 5a 5d b0 8c 1b 0e 3f b0 dc 1a b0 ba a2 59 30
       -8.05282e-10 0.55510783 -5.633849e-10 7.917539e-10
000180 4f f2 08 b0 ce 1d 09 30 10 57 94 2d f8 1c 8d b0
       -4.9820853e-10 4.9882665e-10 1.6864315e-11 -1.0267334e-09
000190 19 68 9a af 6e b9 a6 af 7a 56 13 31 e2 94 50 b0
       -2.8086403e-10 -3.032698e-10 2.1440472e-09 -7.5881534e-10
0001a0 50 46 ca b0 56 63 12 30 cc a7 e1 30 52 6b e3 2f
       -1.4717418e-09 5.3255655e-10 1.6418595e-09 4.1367315e-10
0001b0 7f 0f 45 b1 ec 6d 1e 2e 8a 28 3b 30 70 9b f0 b0
       -2.8676082e-09 3.602267e-11 6.8087813e-10 -1.7506476e-09
0001c0 26 e6 a5 b1 ed 4a 33 b0 90 1f ec 3e 16 ea 67 2f
       -4.828297e-09 -6.5226297e-10 0.4611783 2.1092492e-10
0001d0 1f 1c 28 2f d1 3b 20 ad e3 d3 28 31 72 92 83 2f
       1.5289502e-10 -9.108229e-12 2.4567661e-09 2.3932817e-10
0001e0 23 11 6d 2f a6 d0 9d b0 2d 51 df 31 7b e2 a3 30
       2.1561113e-10 -1.1482555e-09 6.499383e-09 1.192418e-09
0001f0 82 dc 6b 30 1d b0 d0 2f a9 26 07 31 f2 2b 51 af
       8.580586e-10 3.7960116e-10 1.9667061e-09 -1.9024052e-10

weight f4 [128]
000000 e4 56 ee 37 7c 8e b6 b7 3f 88 d6 b6 f1 fb b9 b6
       2.8412273e-05 -2.176244e-05 -6.393558e-06 -5.5427595e-06
000010 21 e7 33 37 6d f3 8b b7 1c 5a ab 36 63 4b bb 35
       1.0723045e-05 -1.6683445e-05 5.1066872e-06 1.3954526e-06
000020 b6 54 3f 38 6a 58 ab 35 a9 7e 05 37 12 98 7b 34
       4.561684e-05 1.2766225e-06 7.956908e-06 2.343152e-07
000030 53 58 5c 37 b3 54 a1 35 69 98 03 38 bc 2a ec 36
       1.3133586e-05 1.2020085e-06 3.1374777e-05 7.038323e-06
000040 62 10 7d 34 23 b2 9c 37 cf 68 f7 37 b2 90 cf b6
       2.3568421e-07 1.86796e-05 2.94935e-05 -6.1859255e-06
000050 52 81 3b 38 5d c8 e5 b7 76 de 24 b7 c8 dd 90 b7
       4.4704713e-05 -2.7392229e-05 -9.8269575e-06 -1.7269413e-05
000060 ca 9d 13 37 5d 76 a3 b6 63 8c c9 b6 0e 76 c2 35
       8.798621e-06 -4.871558e-06 -6.00661e-06 1.4488485e-06
000070 84 22 dd b6 af d1 06 37 50 55 d7 b7 f8 2a 9b 37
       -6.5903314e-06 8.035843e-06 -2.5669724e-05 1.8497449e-05
000080 6c d5 b6 37 36 30 82 b7 ae 61 c4 b4 9c 49 5f 35
       2.1795473e-05 -1.5519658e-05 -3.6578916e-07 8.318109e-07
000090 20 73 e0 37 d9 7b cd b7 0b 30 47 b7 79 01 d2 37
       2.675649e-05 -2.4495575e-05 -1.187251e-05 2.5034637e-05
0000a0 4c 2d d6 36 65 f4 ed 37 cb 0d 8e b4 0a ae 24 b6
       6.3829702e-06 2.8366407e-05 -2.6459597e-07 -2.4539208e-06
0000b0 83 f8 51 b6 02 34 93 36 89 37 9c 37 84 91 01 37
       -3.128808e-06 4.386996e-06 1.862251e-05 7.72288e-06
0000c0 d4 5c 59 37 6a 99 58 37 33 11 32 b7 d9 6f c0 36
       1.2955821e-05 1.2910323e-05 -1.0613631e-05 5.7350667e-06
0000d0 b8 6a 6b b7 45 41 81 37 5e bf df 35 9d d7 10 38
       -1.4031939e-05 1.5408392e-05 1.667049e-06 3.453308e-05
0000e0 4a f6 c1 35 8f 78 cd b4 52 35 14 b6 43 e2 63 b7
       1.44513e-06 -3.8271943e-07 -2.2084755e-06 -1.3582935e-05
0000f0 1c 5b 44 b5 c0 e7 32 36 11 26 02 37 a6 67 1a b8
       -7.314827e-07 2.6658963e-06 7.757467e-06 -3.681299e-05
000100 c1 2f 1b 37 87 45 d7 b6 b0 27 29 35 05 6b d4 37
       9.2498385e-06 -6.4155934e-06 6.301516e-07 2.5322204e-05
000110 ba 15 cb 35 1b 34 a8 37 f8 3a a6 36 1e 05 46 b7
       1.5131002e-06 2.0051424e-05 4.9540504e-06 -1.1802911e-05
000120 d2 27 6f 37 c2 4c 12 37 dc ab 67 b7 b8 d4 90 b6
       1.42547815e-05 8.72015e-06 -1.3808687e-05 -4.316298e-06
000130 6f 04 7c b7 a7 0b 81 b7 35 2d 54 b5 b4 8e 17 34
       -1.5021403e-05 -1.5383424e-05 -7.904194e-07 1.4114886e-07
000140 7f 6d e3 b6 16 cd 38 38 d0 fb 5e b7 fa af 60 36
       -6.777874e-06 4.406002e-05 -1.3290861e-05 3.3481033e-06
000150 fe 6b a3 36 05 7d 22 b7 4f 8e 19 37 df 2d 80 37
       4.8703505e-06 -9.685061e-06 9.152644e-06 1.528015e-05
000160 42 d5 fc b6 1e 37 a7 b6 b1 e3 5c 37 62 11 9c 37
       -7.5350117e-06 -4.9834043e-06 1.3166035e-05 1.8604744e-05
000170 df eb 9c 35 34 f3 80 3e 54 3d 8c b6 32 6a 83 b7
       1.1691553e-06 0.2518555 -4.1794647e-06 -1.5665868e-05
000180 93 3c c0 b7 5f 78 e8 34 33 7b 8b 37 c6 9d bc b7
       -2.291639e-05 4.330095e-07 1.662746e-05 -2.2484815e-05
000190 a9 95 93 36 12 86 00 37 76 1c 85 b6 a0 cf 0f b7
       4.398364e-06 7.66061e-06 -3.967022e-06 -8.571806e-06
0001a0 b9 0e 72 b7 da 5b fd 37 f4 69 b6 b5 cb f7 b4 34
       -1.4427752e-05 3.0202722e-05 -1.3590893e-06 3.3707906e-07
0001b0 98 57 57 b7 80 a7 ea b5 95 5a 92 34 17 83 5c b7
       -1.2835393e-05 -1.7483108e-06 2.7260526e-07 -1.3143544e-05
0001c0 1b a7 e1 36 38 91 fe b7 fd e8 05 3f 60 f7 36 b7
       6.724976e-06 -3.0346782e-05 0.52308637 -1.0905642e-05
0001d0 9d 0f af b6 a4 95 dc 37 2f 83 ae 37 af 1d 37 b7
       -5.217224e-06 2.6295726e-05 2.0803504e-05 -1.0914561e-05
0001e0 dd ff 09 37 b6 c5 45 35 e1 15 bf 37 c4 35 08 37
       8.225409e-06 7.3675926e-07 2.2779162e-05 8.11875e-06
0001f0 11 10 46 37 53 74 03 b7 65 ac 49 37 a7 6f f4 36
       1.180546e-05 -7.835292e-06 1.2020672e-05 7.2847647e-06

bias f4 [128]
000000 92 37 a7 b7 49 53 be 37 0b b5 05 b8 e4 91 8c 38
       -1.9933828e-05 2.2688548e-05 -3.187828e-05 6.7028945e-05
000010 93 52 23 b8 cd 3e 8c b8 3e e0 91 b7 21 ac 13 37
       -3.893913e-05 -6.687418e-05 -1.7389768e-05 8.80196e-06
000020 78 7a 42 39 bb eb 56 b8 a4 d5 e6 37 cf 7c 2c b8
       0.00018546905 -5.1241117e-05 2.751762e-05 -4.1124233e-05
000030 d8 5d 33 b7 06 42 1f b8 c2 33 31 b8 c0 44 3b 38
       -1.0691081e-05 -3.7970043e-05 -4.224829e-05 4.4648303e-05
000040 9a 05 99 b8 a6 cd 2a b8 ac 7b 4c 38 a6 26 9c 36
       -7.296652e-05 -4.0722683e-05 4.875257e-05 4.6536616e-06
000050 38 6a a9 37 ca 5c 56 38 41 16 a4 b8 5d a7 de 37
       2.0195832e-05 5.1107992e-05 -7.8242745e-05 2.6542397e-05
000060 ad 20 68 37 f2 42 1f b6 05 27 0c 37 c4 c7 61 b7
       1.38358855e-05 -2.3731814e-06 8.353735e-06 -1.3457557e-05
000070 e4 5c 80 b8 13 7a 9a b7 ed a3 80 b7 21 ea cd b7
       -6.120818e-05 -1.8415076e-05 -1.5335123e-05 -2.454693e-05
000080 31 12 84 b7 60 d7 ba b8 98 42 a9 b6 d2 3c 8a b7
       -1.5744097e-05 -8.909288e-05 -5.044345e-06 -1.6479204e-05
000090 e7 a4 90 38 af 01 27 b7 3b e8 a4 b8 a9 0b 66 37
       6.8971705e-05 -9.954368e-06 -7.863386e-05 1.3711783e-05
0000a0 82 20 fb 37 df ad e3 b8 8c 7f 2d b6 b0 c5 4d b8
       2.993667e-05 -0.000108565895 -2.585325e-06 -4.905992e-05
0000b0 8c 78 df 38 b3 96 a3 b4 ee 75 0e b5 07 c2 24 b8
       0.00010655922 -3.0470764e-07 -5.307073e-07 -3.928135e-05
0000c0 79 dd 84 37 6e ac 53 b7 21 5c 02 b8 b8 18 e0 36
       1.5838757e-05 -1.2616727e-05 -3.1080217e-05 6.678598e-06
0000d0 a9 b5 26 b8 de 61 24 b8 1e a7 39 b8 d8 d7 ad b6
       -3.974667e-05 -3.9191793e-05 -4.4263077e-05 -5.1809293e-06
0000e0 11 57 88 38 c1 73 d8 b8 d1 2e 2d b6 2f 85 b6 b7
       6.501203e-05 -0.000103212435 -2.580626e-06 -2.175811e-05
0000f0 f7 0f ad 38 46 b3 2f b8 50 81 e1 b7 fc e5 6e b8
       8.2522565e-05 -4.1890213e-05 -2.6882306e-05 -5.695781e-05
000100 16 7a 9f 38 ee df 7c b8 94 44 12 39 b3 18 53 b8
       7.604451e-05 -6.0290033e-05 0.00013949192 -5.0329323e-05
000110 ca 9e 86 38 46 9d 0c b8 e4 9c f1 35 91 c9 d5 b8
       6.419195e-05 -3.3525073e-05 1.800156e-06 -0.00010194176
000120 21 16 cf 37 01 db 35 b8 21 af c7 38 5e de 9c 38
       2.4686628e-05 -4.3357726e-05 9.52168e-05 7.480079e-05
000130 74 d0 65 b8 09 ba 92 b7 99 a4 cf b6 7a d3 3b 37
       -5.479199e-05 -1.7491186e-05 -6.1882424e-06 1.1195307e-05
000140 0e 11 51 38 1e 62 f2 b7 3e f7 5c b7 db 30 91 b6
       4.9845366e-05 -2.8894337e-05 -1.3170587e-05 -4.3270243e-06
000150 05 17 a7 b7 75 b9 a6 b7 2b 8a 09 37 02 9c f1 b7
       -1.991867e-05 -1.9875102e-05 8.198006e-06 -2.8802086e-05
000160 f8 dd 92 b8 86 8b 86 38 f7 65 80 b8 3f bf 93 b8
       -7.0031674e-05 6.415606e-05 -6.122508e-05 -7.0451286e-05
000170 9b 53 b9 36 9a 3e eb 3e 73 78 65 b8 a5 f8 3e b7
       5.5231626e-06 0.459462 -5.471003e-05 -1.1382775e-05
000180 ae b1 de 35 42 c2 4d b8 07 70 4b b7 89 99 f0 b7
       1.6592e-06 -4.9056725e-05 -1.2125826e-05 -2.8681725e-05
000190 c6 a9 4d 37 90 08 01 38 9f 4f 78 38 00 0a 1d b8
       1.2258481e-05 3.076397e-05 5.920196e-05 -3.744103e-05
0001a0 5e 49 ca 37 be 93 0c b8 f5 ff 04 38 cd fd b4 b6
       2.411444e-05 -3.3516197e-05 3.170963e-05 -5.3939643e-06
0001b0 63 08 f2 b7 e6 d3 7b 35 e0 3d 43 b8 5f 46 8d 37
       -2.8852553e-05 9.381314e-07 -4.654925e-05 1.6841279e-05
0001c0 a1 85 cf b7 2f c8 bb 36 63 7f 97 3e 6c ac bb 38
       -2.4738549e-05 5.5963387e-06 0.29589376 8.948971e-05
0001d0 bf b5 f8 b7 bc 57 1c 38 e1 96 6d b8 f7 18 f9 37
       -2.9648536e-05 3.7275007e-05 -5.664572e-05 2.9694738e-05
0001e0 c2 74 1b 37 30 5c 60 38 3c 34 60 38 a1 52 3f b7
       9.265905e-06 5.3491618e-05 5.345441e-05 -1.1403726e-05
0001f0 85 8f 8b b7 82 0b f8 37 50 d3 be b8 b7 f5 fc 36
       -1.6636923e-05 2.9569263e-05 -9.099266e-05 7.53879e-06

running_mean f4 [128]
000000 28 03 17 be b4 cd 1d 3e 08 23 56 bd 8e dc 34 be
       -0.14747298 0.15410501 -0.052279502 -0.1766226
000010 84 51 46 bc 55 b9 21 bd 76 32 0f 3e 23 95 04 be
       -0.012104396 -0.039483387 0.13984093 -0.12947516
000020 09 28 2d 3d 27 47 36 3e ff 29 fd 3d a3 c0 f3 bc
       0.04227451 0.1780058 0.12361526 -0.029754942
000030 44 46 68 bc e8 69 a4 bb 14 a7 d7 3d 81 c0 53 3e
       -0.014176909 -0.005017508 0.105299145 0.20678903
000040 d3 62 29 bd 09 14 dd 3c 1d 35 1d 3c 17 70 a8 bd
       -0.04135401 0.026987093 0.009595183 -0.082245044
000050 3a 8b f1 3d d3 e6 ac 3b d0 78 16 bd 98 07 a4 3c
       0.117941335 0.00527654 -0.03673631 0.020023152
000060 ae 91 89 3d e5 3e 1d 3e ce 06 52 bc 3d 04 50 be
       0.06717239 0.15356024 -0.012819005 -0.20314117
000070 81 25 7c bc 8f 5c 19 3e 43 c0 44 bd 63 91 67 3c
       -0.015389801 0.14976715 -0.048034918 0.014133784
000080 f8 6f b6 bc a4 9d 24 3c e5 e2 b1 3c b6 a1 4d 3d
       -0.022270188 0.01004735 0.021714637 0.050203048
000090 f8 86 bd bd 8b 8d a9 3d d9 7f a7 3b 7d 90 9f 3a
       -0.09254259 0.0827895 0.005111676 0.0012173798
0000a0 b0 9b c6 bd ad 97 83 bd b4 39 68 bc 1a 51 7d 3d
       -0.09697664 -0.06425414 -0.014173914 0.061844923
0000b0 68 7b 8c 3d ce 4d 0c be e5 d7 32 3d cb 2e 08 be
       0.068594754 -0.13701555 0.043662924 -0.132991
0000c0 c8 4b 94 bd 8f 9a 1e 3e bf 83 9d bd 75 44 c5 3d
       -0.072410166 0.15488647 -0.07691144 0.09632198
0000d0 ed 25 28 be bd 7d bb ba 87 9d f6 bb fd fc 6a bb
       -0.16420718 -0.0014304441 -0.007526103 -0.003585636
0000e0 33 8d ce 3d 3e dd 25 bd f3 49 ba 3d 8e c5 42 3b
       0.10085525 -0.040494196 0.09096136 0.0029719803
0000f0 af 77 05 3e 6d 1d 2f 3d 8c c9 08 3d 41 58 59 bd
       0.13033937 0.042752672 0.033395335 -0.05306268
000100 b8 b8 67 bd fe dc 81 3e 5d 82 d9 bd 77 a4 e5 bd
       -0.056572646 0.25363916 -0.10620568 -0.1121301
000110 d5 7e 36 bd 23 ea 27 be e4 9d 26 bc e8 dc 1a 3e
       -0.04455455 -0.1639791 -0.01016948 0.15123332
000120 03 87 b0 bd 6c d4 e2 3d 41 92 0b bd 94 ae dc bd
       -0.086195014 0.110756725 -0.034075025 -0.10775486
000130 b7 13 0c 3e 40 b0 a3 bc b3 2b 7f bd 2c c0 c5 3d
       0.13679396 -0.019981503 -0.062297534 0.096557945
000140 89 86 2d bd c4 87 0b 3e 31 15 f7 bc 7a d4 35 be
       -0.04236463 0.13626009 -0.030161472 -0.17756835
000150 69 6a 9b 3b f3 4f f9 ba 72 78 c9 3d b9 1a ff bd
       0.0047429097 -0.0019021019 0.09837426 -0.12456269
000160 3c c9 5b bd e5 e4 b2 bd ef fc 20 3e c0 3c 3e 3d
       -0.05365871 -0.087350644 0.15721487 0.046444654
000170 f7 91 51 3d c0 5c 8f bd 84 20 2f be 00 79 2f bc
       0.051164594 -0.070001125 -0.17102247 -0.010710001
000180 90 ed c7 3d e4 7e 08 3d 09 57 26 bd 67 33 40 3e
       0.09762108 0.033324137 -0.040610347 0.18769608
000190 45 b4 fc 3d d3 50 38 3d a5 f0 f5 3d 05 3e 55 3d
       0.12339071 0.044998955 0.1200879 0.0520611
0001a0 cb 25 91 3d 25 5f e3 bd 37 14 58 3c e6 59 d3 3c
       0.070872866 -0.11102132 0.013188413 0.025799703
0001b0 46 ef 25 be a4 f5 11 3e b6 04 27 3e 30 63 80 bd
       -0.16204557 0.1425386 0.16310391 -0.062689185
0001c0 fe 73 c7 bd 01 c6 b6 3d 5d c4 a6 3c 3d 64 b9 3c
       -0.09738921 0.08924485 0.020357305 0.022630805
0001d0 61 6d 44 3c e0 10 0a 3e 4c 5c 2c 3e 64 cc 57 bd
       0.011988969 0.13483 0.16832083 -0.052685156
0001e0 a4 aa ac bc 11 eb 05 bd e5 23 0b bd 66 58 ef 3d
       -0.021077462 -0.03269488 -0.03396978 0.116867825
0001f0 6f 5b 9c bc 0f 15 5a be c5 b4 07 3e e8 0d 1f 3c
       -0.019086568 -0.21297096 0.13252552 0.009707905
