src/models/model.pt (torch, 223864 bytes, 25 tensors)

weight f4 [128, 8]
2.5059693e-05 1.9011024e-05 -1.1410088e-05 -5.7423645e-06 1.8330235e-05 7.784468e-06 2.4087096e-05 7.843408e-07
8.326212e-06 -6.022777e-06 -1.0167226e-06 2.7600756e-06 3.7833527e-07 1.0465732e-05 -1.876118e-05 2.4621634e-06
-1.1799633e-05 1.4982327e-05 -1.6192698e-05 1.1368389e-05 -1.6748283e-05 1.0235594e-05 4.444991e-07 -3.8164862e-06
-6.5860254e-06 -6.361741e-06 -7.4241557e-06 7.696218e-06 -1.742764e-06 -2.2350334e-05 1.391329e-05 -2.0140765e-06
1.2753855e-05 7.6007755e-06 4.518985e-06 -5.1744805e-06 2.8096805e-08 -3.0053043e-05 -5.445287e-06 3.952309e-06
1.4520389e-05 6.0972434e-07 2.458039e-05 7.762887e-06 -6.2007884e-06 -1.2594472e-05 6.6441758e-06 -1.8014634e-05
3.7258126e-06 -1.8892137e-05 6.910778e-06 -9.731795e-07 1.35653745e-05 -6.721852e-06 -1.6880778e-05 -2.5655312e-05
-1.6291307e-05 -1.5544869e-05 -7.008141e-06 -1.6359507e-05 1.04795545e-05 -1.8025738e-06 2.2895703e-05 1.03095135e-05
-1.3666116e-06 9.139303e-06 -1.961224e-05 -1.1260831e-05 -6.584204e-06 1.0693191e-05 -2.897683e-05 5.109438e-07
1.9946092e-06 -8.522155e-06 -1.4651267e-05 4.9302885e-06 -1.1971914e-06 2.1498035e-05 6.418703e-06 -4.315104e-06
2.6417858e-05 6.120295e-07 1.8458504e-05 -1.8337756e-06 1.4030693e-05 -1.9110723e-05 4.1088846e-05 2.0100953e-05
4.814367e-06 -1.1992609e-05 1.103818e-05 1.546822e-05 -1.2910674e-06 -2.0450175e-06 1.491854e-05 1.4562569e-05
2.2282748e-05 6.465368e-06 7.7742766e-07 2.5943941e-06 2.5547984e-06 -9.507867e-06 1.1069094e-06 3.1888592e-06
6.033763e-07 2.185217e-05 -8.522278e-06 -4.0211005e-05 -1.9555759e-05 -1.212931e-05 -1.5255722e-05 3.5008215e-05
1.6239344e-05 3.1167904e-06 -8.605715e-06 -1.5957409e-06 -1.3108376e-05 -2.497566e-06 -1.0847577e-05 2.1451337e-05
1.5023262e-05 -4.6668174e-06 6.710659e-06 1.4916596e-05 -9.730098e-06 -6.552969e-06 -1.11404515e-05 1.4555277e-05
8.391736e-07 6.3531966e-06 5.004908e-06 -7.444659e-06 -4.7461e-05 -3.6699532e-06 8.200002e-06 1.1857001e-05
-2.0682986e-05 -6.9811867e-06 1.4000763e-05 -1.8541587e-05 6.496027e-06 -5.959567e-07 2.1580667e-05 2.9388361e-06
1.1189498e-05 3.2117894e-06 -1.6199761e-05 1.4755528e-05 -1.6183978e-05 2.0318318e-07 -1.6941065e-05 -2.6074076e-07
-1.35829905e-05 -4.8559295e-06 9.39381e-06 1.5011457e-05 -4.223663e-06 6.945733e-06 -1.0363045e-05 1.800289e-05
-6.060905e-06 4.7835033e-06 7.138476e-06 1.8133172e-05 2.948796e-06 7.0188244e-06 1.2340637e-05 -3.870714e-06
-1.9309291e-05 -1.0274755e-05 1.4149144e-05 -2.3508752e-05 -5.5492014e-06 -8.452986e-06 -1.526406e-05 2.8912318e-05
2.170223e-05 -1.1018293e-05 -1.2493024e-05 3.1875882e-06 -1.5196756e-05 -2.2074064e-06 -4.1968947e-06 -1.1696764e-06
-1.139001e-05 8.824848e-06 1.1278343e-05 1.4068928e-05 2.6174552e-05 1.7260378e-05 1.274643e-05 -2.2121387e-05
-3.7347825e-05 8.23068e-08 -1.2755585e-07 1.1198075e-05 -2.0858448e-05 -7.208684e-06 1.263461e-05 1.522508e-05
-2.246494e-05 8.7740904e-07 1.461107e-05 -1.2897234e-05 -2.9632172e-06 -1.5906351e-05 -4.3310715e-06 -1.5572903e-05
2.7290906e-05 9.282072e-06 3.176405e-06 9.441128e-06 -4.6504306e-06 -1.11511745e-05 -2.1332341e-06 1.5749087e-05
2.78004e-06 3.4310895e-05 1.3160194e-05 9.72828e-06 7.172095e-07 -3.6528736e-06 7.894185e-06 -7.892799e-06
9.253888e-06 6.21746e-06 1.2567936e-05 1.3263017e-05 -8.835364e-06 1.758814e-05 8.0051313e-07 -6.98694e-06
0.3649626 2.335438e-05 5.5550895e-06 -1.9607237e-06 -1.7516619e-05 -5.0049283e-07 -2.4797183e-07 -2.1083148e-05
2.8552466e-05 -1.1247603e-05 2.1160446e-05 -1.275186e-05 1.8662938e-06 -1.3641829e-05 -1.1279134e-05 1.4944189e-05
-2.3646107e-06 1.10325045e-05 -5.7921075e-06 -7.2380094e-06 -2.3142125e-05 2.5029902e-05 -2.0355425e-05 3.099941e-05
00000000: 4837 d237 dd79 9f37 f46d 3fb7 89ae c0b6
00000010: e1c3 9937 099a 0237 a50e ca37 7d8b 5235
00000020: cfb0 0b37 4317 cab6 5376 88b5 bd39 3936
00000030: 011e cb34 fa95 2f37 5461 9db7 a53b 2536
00000040: 0af7 45b7 9b5c 7b37 8ed5 87b7 dcba 3e37
00000050: aa7e 8cb7 8bb9 2b37 7ea3 ee34 5e0f 80b6
00000060: 87fd dcb6 f076 d5b6 031d f9b6 011f 0137
00000070: eae8 e9b5 fa7c bbb7 206d 6937 9229 07b6
00000080: 64f9 5537 2a0a ff36 c9a1 9736 73a0 adb6
00000090: 8759 f132 6b1a fcb7 a9b6 b6b6 139e 8436
000000a0: 999c 7337 f0ab 2335 fc31 ce37 593d 0237
000000b0: 5e10 d0b6 d84c 53b7 09f1 de36 221e 97b7
000000c0: f908 7a36 8e7a 9eb7 22e3 e736 319e 82b5
000000d0: d796 6337 458c e1b6 329b 8db7 5d36 d7b7
000000e0: 51a9 88b7 5a66 82b7 7927 ebb6 c63b 89b7
000000f0: 58d1 2f37 f7ef f1b5 2610 c037 06f7 2c37
00000100: 6b6c b7b5 0255 1937 f784 a4b7 e7ec 3cb7
00000110: e2ed dcb6 e866 3337 4513 f3b7 ca27 0935
00000120: 20db 0536 61fa 0eb7 b6ce 75b7 db6e a536
00000130: 2faf a0b5 ae56 b437 3d60 d736 76ca 90b6
00000140: eb9b dd37 594a 2435 56d7 9a37 0d20 f6b5
00000150: 5e65 6b37 f74f a0b7 d056 2c38 789e a837
00000160: 198b a136 dd33 49b7 9f30 3937 c0c1 8137
00000170: bd48 adb5 223d 09b6 a44a 7a37 c251 7437
00000180: d6eb ba37 17f1 d836 6cb0 5035 5a1b 2e36
00000190: 1a73 2b36 fa83 1fb7 1e91 9435 2f00 5636
000001a0: b4f7 2135 2e4f b737 e8fa 0eb7 3da8 28b8
000001b0: ac0b a4b7 fd7e 4bb7 d4f2 7fb7 c9d5 1238
000001c0: ba39 8837 0d2a 5136 4461 10b7 3d2d d6b5
000001d0: 0cec 5bb7 db9b 27b6 fdfd 35b7 65f2 b337
000001e0: 6b0c 7c37 a897 9cb6 1f2c e136 4b42 7a37
000001f0: 743e 23b7 93e1 dbb6 e0e7 3ab7 7032 7437
00000200: 9243 6135 8b2d d536 d5ef a736 22cd f9b6
00000210: dc10 47b8 5149 76b6 be92 0937 6eed 4637
00000220: 6080 adb7 f03f eab6 d2e4 6a37 c189 9bb7
00000230: 72f8 d936 d5f9 1fb5 2108 b537 d238 4536
00000240: 87ba 3b37 1f8a 5736 b9e4 87b7 838e 7737
00000250: d4c2 87b7 912a 5a34 a91c 8eb7 f0fb 8bb4
00000260: 80e2 63b7 1ef0 a2b6 1b9a 1d37 b8d9 7b37
00000270: fdb8 8db6 640f e936 f0dc 2db7 e904 9737
00000280: c75e cbb6 fb81 a036 0b87 ef36 b11c 9837
00000290: eee3 4536 3e83 eb36 a20a 4f37 2ee1 81b6
000002a0: 63fa a1b7 bd61 2cb7 1c62 6d37 a934 c5b7
000002b0: 4733 bab6 4cd1 0db7 520b 80b7 bb88 f237
000002c0: 2f0d b637 35db 38b7 2199 51b7 59ea 5536
000002d0: 92f5 7eb7 f422 14b6 0dd3 8cb6 c6fd 9cb5
000002e0: b817 3fb7 6f0e 1437 1d38 3d37 9609 6c37
000002f0: 6c91 db37 61ca 9037 80d9 5537 5191 b9b7
00000300: eca5 1cb8 a4c0 b033 49f6 08b4 5edf 3b37
00000310: 2df9 aeb7 20e2 f1b6 3df9 5337 386f 7f37
00000320: 1773 bcb7 1787 6b35 1122 7537 3361 58b7
00000330: afdb 46b6 a16e 85b7 9f53 91b6 8ea2 82b7
00000340: c6ee e437 32ba 1b37 392a 5536 5665 1e37
00000350: e50a 9cb6 ee15 3bb7 af28 0fb6 e81c 8437
00000360: b990 3a36 0be9 0f38 9aca 5c37 a536 2337
00000370: 4386 4035 e423 75b6 4471 0437 506b 04b7
00000380: 2541 1b37 939f d036 e0da 5237 3984 5e37
00000390: 993b 14b7 3e8a 9337 d8e2 5635 5c71 eab6
000003a0: 61dc ba3e 26e9 c337 db65 ba36 fa94 03b6
000003b0: a7f0 92b7 9b59 06b5 fd20 85b4 b7db b0b7
000003c0: f483 ef37 16b4 3cb7 b681 b137 d2f0 55b7
000003d0: 5e7d fa35 36df 64b7 833b 3db7 ceb8 7a37
000003e0: b4af 1eb6 3f18 3937 d359 c2b6 07de f2b6
000003f0: 5621 c2b7 4ef7 d137 f1c0 aab7 5d05 0238

bias f4 [128]
-5.3867373e-09 -1.2057924e-09 -1.2871024e-10 4.994934e-10 2.7374708e-10 -4.7966386e-10 1.0921906e-09 -2.125269e-11
4.299001e-10 3.1980167e-06 6.9804766e-11 2.2572544e-09 4.050154e-10 9.942328e-10 1.159408e-10 6.9573486e-10
6.2500516e-10 -5.9522953e-10 -1.4391545e-10 -3.093197e-10 -4.025323e-10 -5.506135e-09 -2.2347035e-09 9.2919866e-11
-8.318435e-11 1.2454338e-09 -4.6940785e-10 -5.716723e-10 7.1771444e-10 1.1496178 -6.243966e-11 -1.1265459e-09
3.0753405e-10 -1.2817886e-10 -1.2396349e-10 1.950698e-10 -1.4084851e-10 3.1503275e-10 -9.319956e-10 -1.4322529e-09
-1.0225679e-10 -1.8997126e-10 -1.8365749e-10 -7.312302e-11 6.926754e-10 -2.6223929e-10 1.2359243e-10 -2.1420439e-09
2.4387245e-10 -2.0359905e-12 2.9424063e-10 -1.2298897e-10 8.240771e-11 -6.11379e-11 -4.673499e-10 -1.55565e-10
-2.5647412e-10 -7.0163875e-10 -8.646162e-10 1.9638983e-10 -4.2127652e-11 1.7105624e-11 2.7535862e-10 6.874171e-10
1.4343231e-10 -3.8960224e-10 -1.6592664e-09 2.4181577e-09 -7.5638906e-10 5.7550888e-11 1.5639496e-09 1.9020152e-10
-1.8077529e-11 -5.3716637e-10 -4.8127696e-10 -3.315966e-10 4.15518e-11 3.0343034e-10 1.3500563e-09 7.9886636e-10
2.2808484e-09 -5.298148e-10 -2.0069937e-09 -3.772197e-11 -3.2040817e-10 -3.4847308e-10 5.5156033e-11 -1.676698e-11
-2.971169e-11 -2.4425006e-09 -1.4697128e-10 -9.189715e-10 -1.432359e-10 -6.225523e-10 -5.455331e-10 -2.9546812e-10
1.5607738e-09 1.6646337e-10 3.0449068e-10 2.3681954e-10 1.1459855e-09 -1.3680193e-10 -6.561301e-10 3.174866e-10
-6.5466e-11 1.0235276e-10 -4.383633e-11 6.608001e-10 1.8055646e-11 5.3161642e-11 -3.1852057e-10 -1.687916e-09
-3.7039588e-10 1.9558097e-10 -4.7800636e-10 3.3270553e-11 2.9334587e-11 -3.9285664e-10 1.1217312e-09 1.2477414e-10
1.5668227e-09 -7.009146e-10 -3.4625702e-10 5.54185e-10 -5.7488923e-11 1.1744341e-09 6.27324e-10 6.0140476e-10
00000000: 3e16 b9b1 0cb9 a5b0 b684 0daf b94c 0930
00000010: 7a7e 962f 58d9 03b0 0a1c 9630 cef0 baad
00000020: 0f57 ec2f 829d 5636 9780 992e 0a1e 1b31
00000030: daa8 de2f 75a5 8830 def4 fe2e fd3d 3f30
00000040: d4cc 2b30 8e9d 23b0 993c 1eaf e10c aaaf
00000050: 634b ddaf 7a30 bdb1 5291 19b1 3c55 cc2e
00000060: a0ec b6ae ce2b ab30 a407 01b0 dd23 1db0
00000070: aa48 4530 ad26 933f 674e 89ae cfd4 9ab0
00000080: 9211 a92f 24ef 0caf 9f4c 08af 447b 562f
00000090: 55dd 1aaf eb30 ad2f ae17 80b0 ebd8 c4b0
000000a0: 75dd e0ae 28e0 50af fdee 49af 9acc a0ae
000000b0: b366 3e30 e62a 90af 2de4 072f 3c33 13b1
000000c0: ff11 862f 2545 0fac b0c2 a12f 513a 07af
000000d0: 6b37 b52e 9471 86ae d376 00b0 a80b 2baf
000000e0: 86ff 8caf 70dd 40b0 f5a9 6db0 d3ee 572f
000000f0: 8547 39ae 7176 962d 4861 972f aef4 3c30
00000100: 9bb4 1d2f a42f d6af 3f0c e4b0 ae2c 2631
00000110: 26ea 4fb0 8a1c 7d2e 96f2 d630 f820 512f
00000120: fa02 9fad b9a7 13b0 db4a 04b0 134c b6af
00000130: 2bbf 362e 06d0 a62f e28c b930 3997 5b30
00000140: 1cbd 1c31 67a2 11b0 68eb 09b1 2ae7 25ae
00000150: 7125 b0af 3a93 bfaf 2c94 722e e27b 93ad
00000160: 64ac 02ae edd8 27b1 bd98 21af df9a 7cb0
00000170: 527d 1daf 3920 2bb0 7bf4 15b0 716f a2af
00000180: d982 d630 4607 372f 4165 a72f 6331 822f
00000190: c880 9d30 526a 16af 0d5b 34b0 448a ae2f
000001a0: 15f6 8fae 7b13 e12e 52cb 40ae aca3 3530
000001b0: b3d1 9e2d b0ce 692e c91b afaf 44fc e7b0
000001c0: 96a0 cbaf 260b 572f b564 03b0 5053 122e
000001d0: cf03 012e a8f9 d7af 682b 9a30 cc30 092f
000001e0: ac57 d730 7baa 40b0 585b beaf 4d55 1830
000001f0: c6d6 7cae ba69 a130 0170 2c30 1950 2530

weight f4 [128]
2.0436746e-05 4.223238e-06 1.652203e-05 1.7282617e-05 8.531421e-06 5.9472277e-06 -3.889719e-06 -1.7522978e-05
2.464348e-05 1.9525882e-05 7.4949676e-06 -3.441563e-05 1.05948475e-05 9.803299e-06 1.8565233e-05 -5.584505e-06
-2.14966e-06 -3.9038256e-05 2.849665e-06 7.170879e-08 -2.6911994e-05 -4.479328e-06 -3.2256005e-06 1.6013228e-05
8.793246e-06 -3.327727e-05 -9.072601e-06 -8.369636e-06 -1.7106357e-05 0.5010898 -6.3046577e-06 -2.4947918e-05
1.4080412e-06 -1.9936202e-05 1.0707991e-05 -2.1152977e-05 -8.2540816e-07 2.1719595e-06 5.3528706e-06 8.524563e-06
5.9117338e-06 -1.4109686e-05 1.2033593e-05 -3.1768484e-06 -2.0852387e-05 6.2688023e-06 4.8404536e-06 2.6575626e-05
-1.2248476e-05 3.5459572e-05 1.426098e-05 2.6932305e-06 1.2685169e-07 8.97343e-06 3.4541738e-06 -9.316022e-06
4.5693946e-06 6.74906e-06 -3.0605657e-05 -1.0978776e-05 -1.20767245e-05 4.245696e-06 -1.7999077e-06 3.121301e-05
1.4120544e-05 -1.5088903e-05 -6.9382924e-07 4.3174397e-05 2.0762638e-08 -1.30514545e-05 -2.7247706e-06 -1.4485639e-05
1.8059081e-05 1.7473384e-06 -1.1805911e-06 1.2051217e-05 -7.4966483e-06 2.54672e-05 -1.3287284e-05 7.9670986e-07
3.5445457e-05 -5.6336803e-06 -7.639626e-07 1.6315511e-05 -5.777489e-06 -2.3709421e-05 5.6757717e-06 -1.5689648e-05
7.303459e-06 -5.6185745e-06 7.3250785e-06 4.0454956e-06 1.2374436e-05 2.3326522e-05 1.6362917e-05 1.716351e-05
-2.9272729e-05 -5.8534006e-06 5.456399e-07 9.765121e-06 -1.3843361e-05 -2.1866486e-05 8.6310265e-06 -7.2055964e-06
5.166468e-06 -8.271641e-06 -1.5349505e-06 9.058861e-06 -7.282323e-06 -8.857674e-06 -2.7559357e-05 4.275597e-05
-5.200944e-07 -1.6980016e-06 -1.434249e-05 2.3845409e-05 -5.706554e-06 9.213565e-06 1.6520798e-07 3.6979989e-06
-6.664989e-06 4.5342576e-06 -3.152465e-05 2.4263507e-05 1.0943799e-05 2.7500982e-05 -1.16708725e-05 8.994487e-06
00000000: 946f ab37 57b5 8d36 ca98 8a37 23fa 9037
00000010: 2d22 0f37 4c8e c736 6f84 82b6 4ffe 92b7
00000020: 78b9 ce37 83cb a337 487d fb36 8059 10b8
00000030: 86c0 3137 d978 2437 89bc 9b37 8862 bbb6
00000040: e142 10b6 02bd 23b8 df3c 3f36 53fe 9933
00000050: 11c1 e1b7 224d 96b6 6577 58b6 2554 8637
00000060: b486 1337 3293 0bb8 8636 18b7 506b 0cb7
00000070: 9f7f 8fb7 6c47 003f 998c d3b6 3f47 d1b7
00000080: edfb bc35 ab3c a7b7 79a6 3337 ac71 b1b7
00000090: 9e91 5db5 fbc1 1136 cf9c b336 b804 0f37
000000a0: 685d c636 a4b8 6cb7 e3e3 4937 d731 55b6
000000b0: 29ec aeb7 9a58 d236 2e6b a236 b9ee de37
000000c0: ce7e 4db7 6dba 1438 7142 6f37 59bd 3436
000000d0: ba34 0834 978c 1637 41ce 6736 034c 1cb7
000000e0: cd52 9936 fc75 e236 935e 00b8 7c31 38b7
000000f0: 239d 4ab7 4076 8e36 5c94 f1b5 b7ea 0238
00000100: 46e7 6c37 5826 7db7 953f 3ab5 2816 3538
00000110: 8659 b232 92f7 5ab7 34db 36b6 5907 73b7
00000120: 957d 9737 1786 ea35 cd74 9eb5 952f 4a37
00000130: b88b fbb6 65a2 d537 73ec 5eb7 7cdd 5535
00000140: 45ab 1438 f208 bdb6 1c13 4db5 4bdd 8837
00000150: 41dc c1b6 98e3 c6b7 8272 be36 439d 83b7
00000160: 3c10 f536 3087 bcb6 f2c9 f536 8bbe 8736
00000170: cc9b 4f37 53ad c337 1943 8937 5bfa 8f37
00000180: b58e f5b7 5468 c4b6 1778 1235 e0d4 2337
00000190: c840 68b7 ec6d b7b7 facd 1037 9ac7 f1b6
000001a0: 9f5b ad36 6dc6 0ab7 7f04 ceb5 83fb 1737
000001b0: ae5a f4b6 6c9b 14b7 452f e7b7 e054 3338
000001c0: 9d9c 0bb5 e4e6 e3b5 87a0 70b7 a007 c837
000001d0: ed7a bfb6 f693 1a37 0664 3134 232b 7836
000001e0: d2a3 dfb6 fa24 9836 5639 04b8 7c89 cb37
000001f0: 429b 3737 e9b1 e637 04ce 43b7 07e7 1637

bias f4 [128]
3.3698452e-05 -3.0853098e-05 -6.36926e-06 2.988691e-05 6.5700447e-06 -1.3705561e-05 1.5811282e-05 7.575935e-06
-3.8607595e-06 5.253125e-06 -3.3682022e-06 7.949904e-06 -3.602301e-06 4.7595888e-05 5.385678e-06 -2.5456134e-06
4.4150922e-05 -7.927258e-07 1.3437177e-06 2.7040894e-06 -2.054152e-05 3.1680195e-06 4.4474924e-05 -7.675856e-06
-2.522145e-06 5.0656797e-07 3.8687842e-05 5.66387e-06 -1.3279626e-05 0.49895772 -1.5853998e-07 1.36421395e-05
6.499635e-06 2.1752894e-06 -2.9080322e-06 -5.219819e-06 2.4184586e-05 1.7102408e-05 -1.2720781e-05 -4.7544975e-07
5.0113544e-05 -2.0247446e-06 1.5060916e-06 -5.6188537e-06 -2.6465418e-06 1.8345507e-06 2.748754e-05 1.9935245e-05
2.4824307e-05 -1.5172274e-06 3.5035875e-05 -3.1820448e-06 2.102423e-05 1.1717716e-05 4.991087e-06 3.5122478e-06
1.9348363e-06 -2.5825246e-05 1.2458109e-05 3.1550866e-05 -5.6135354e-06 2.2014756e-06 8.085639e-06 -7.373029e-06
-1.8259712e-05 4.268805e-05 3.3856417e-05 -1.4056134e-05 2.6794547e-05 -1.2855732e-05 -2.468118e-05 -7.929528e-06
-1.3318166e-05 -2.0237323e-05 -5.6596787e-06 2.4787337e-06 -2.8962248e-05 2.1928054e-05 2.658012e-05 -3.3465665e-05
9.303577e-06 2.8191253e-05 -1.86757e-05 -1.47728915e-05 3.2004158e-05 -3.073935e-05 -3.628635e-06 -3.249864e-06
2.1431479e-06 3.4805347e-05 3.5793386e-05 -2.4235936e-07 -4.4038e-06 2.9255632e-05 -3.3409095e-05 -1.0515353e-06
-1.3914623e-06 1.4362069e-05 2.5751184e-05 3.7011152e-05 -3.0950963e-05 6.9569433e-06 -2.0115978e-05 -7.3257265e-06
2.1116974e-05 -3.1644043e-07 -8.930614e-06 -6.7483643e-06 -3.17911e-05 5.06483e-05 2.9287005e-06 4.6961683e-05
4.857989e-06 2.575162e-06 -1.4658891e-05 4.5848587e-06 3.5676012e-06 8.17798e-06 4.8365382e-05 -2.9421717e-06
5.083598e-06 3.480716e-05 -1.4567003e-06 4.0955006e-06 -3.9858664e-06 -8.06064e-06 -2.9253362e-05 -1.0220261e-05
00000000: 7057 0d38 4368 01b8 87b7 d5b6 a7b5 fa37
00000010: 4174 dc36 f0f0 65b7 78a2 8437 c934 fe36
00000020: ac8b 81b6 0044 b036 4609 62b6 9460 0537
00000030: 0fbf 71b6 b2a1 4738 9fb6 b436 4ed5 2ab6
00000040: b12e 3938 b4cb 54b5 ca59 b435 e777 3536
00000050: 9450 acb7 299a 5436 968a 3a38 8dc7 00b7
00000060: 1f42 29b6 16fb 0735 c144 2238 460c be36
00000070: 8fcb 5eb7 6377 ff3e 233b 2ab4 8be0 6437
00000080: 7117 da36 30fb 1136 9d27 43b6 e725 afb6
00000090: 01e0 ca37 2477 8f37 576b 55b7 5141 ffb4
000000a0: 0231 5238 d9e0 07b6 ea24 ca35 9689 bcb6
000000b0: 3e9b 31b6 af3a f635 0b95 e637 9d3a a737
000000c0: cb3d d037 89a3 cbb5 7cf3 1238 1d8b 55b6
000000d0: 315d b037 3597 4437 1c79 a736 f5b3 6b36
000000e0: 3cd8 0136 4ba3 d8b7 2c03 5137 7c55 0438
000000f0: e75b bcb6 10bd 1336 8ea7 0737 d665 f7b6
00000100: 6f2c 99b7 f20b 3338 0d01 0e38 a3d2 6bb7
00000110: dac4 e037 f3ae 57b7 6e0a cfb7 1009 05b7
00000120: 1671 5fb7 52c3 a9b7 45e8 bdb6 5258 2636
00000130: f4f3 f2b7 23f2 b737 60f8 de37 7c5d 0cb8
00000140: 8f16 1c37 417c ec37 c3a9 9cb7 16d9 77b7
00000150: 343c 0638 20ee 00b8 7a83 73b6 3d18 5ab6
00000160: 00d3 0f36 f5fb 1138 db20 1638 9e1d 82b4
00000170: 5bc4 93b6 fe69 f537 be20 0cb8 7a22 8db5
00000180: 48c2 bab5 9ef4 7037 3f04 d837 6c3c 1b38
00000190: 58d1 01b8 b06f e936 bcbe a8b7 83cf f5b6
000001a0: 5b24 b137 3ee3 a9b4 b2d4 15b7 0270 e2b6
000001b0: 6f57 05b8 336f 5438 b18a 4436 b9f8 4438
000001c0: cf01 a336 f2d0 2c36 75ef 75b7 a3d7 9936
000001d0: ec6a 6f36 2834 0937 efdb 4a38 2072 45b6
000001e0: c693 aa36 e7fd 1138 d783 c3b5 156c 8936
000001f0: 55be 85b6 2f3c 07b7 1e65 f5b7 b077 2bb7

running_mean f4 [128]
0.20505722 -0.28760076 -0.10211646 -0.08850804 0.058991566 0.2522378 0.044553816 0.1858634
0.023858089 0.19019571 0.25211024 -0.18565363 -0.16971752 -0.22922777 0.18902795 -0.049964476
0.017335823 0.11755557 -0.025203982 -0.21665284 0.12015605 0.19459324 0.20229009 -0.015442525
-0.28488645 0.20769008 -0.051184975 0.050987728 0.14976071 0.18461081 0.014034639 0.17199674
-0.045050234 -0.17222558 0.1845159 0.21980286 0.2735033 -0.29966992 0.0171215 -0.35112938
0.27381572 0.2034685 0.085958794 0.20366514 -0.32146803 -0.11072789 -0.2072943 -0.1961242
-0.37427756 0.04350352 -0.12161551 -0.16841924 -0.16666324 0.16702725 0.20473363 -0.051892444
0.2890279 -0.2261529 -0.22220606 0.1939363 -0.22250728 0.011436846 0.23630011 0.038847025
0.034434315 -0.20813373 -0.09299054 0.25105652 -0.033158854 0.11203852 0.24499151 -0.2071991
0.12881659 -0.22109957 -0.3142671 0.34210783 -0.2991334 0.17180163 -0.08052156 0.06586838
0.21091206 0.042383756 -0.032512113 0.34046647 -0.2747059 0.205218 0.18767333 -0.08715408
-0.22010519 0.2516151 -0.09526949 0.15752402 -0.068667166 -0.06807465 -0.021628 0.15641999
0.17842099 0.13219109 -0.3370938 -0.012990785 -0.24943364 -0.3372369 0.21355283 0.12352064
-0.23356862 0.06794125 0.11263786 -0.058933854 0.27309975 0.14657064 0.04990444 0.18604329
-0.23469178 -0.21082726 0.30033925 -0.3681668 -0.1871645 0.06273299 -0.023976048 0.16413051
0.0275738 0.19512372 0.0060705803 -0.21883374 0.27743182 -0.009314419 0.080905445 0.26276934
00000000: 85fa 513e 6840 93be 6f22 d1bd b443 b5bd
00000010: 24a1 713d 5025 813e 107e 363d fa52 3e3e
00000020: 0a72 c33c aac2 423e 9814 813e fc1b 3ebe
00000030: 6eca 2dbe afba 6abe 8b90 413e 8da7 4cbd
00000040: db03 8e3c fac0 f03d 9578 cebc 3eda 5dbe
00000050: 6014 f63d 7343 473e 2225 4f3e a502 7dbc
00000060: a3dc 91be b5ac 543e 56a7 51bd 82d8 503d
00000070: df5a 193e 9e0a 3d3e 8bf1 653c ea1f 303e
00000080: 9886 38bd e75b 30be bcf1 3c3e 0014 613e
00000090: a008 8c3e 566e 99be 6342 8c3c 3bc7 b3be
000000a0: 9331 8c3e 0c5a 503e 2a0b b03d 988d 503e
000000b0: 7597 a4be 4ec5 e2bd f544 54be c8d4 48be
000000c0: 4fa1 bfbe bf30 323d 8d11 f9bd 1876 2cbe
000000d0: c5a9 2abe 3109 2b3e b1a5 513e 2c8d 54bd
000000e0: 77fb 933e a094 67be fc89 63be 3d97 463e
000000f0: f3d8 63be 9c61 3b3c a8f8 713e 0f1e 1f3d
00000100: ff0a 0d3d 0221 55be d371 bebd 7b8a 803e
00000110: 94d1 07bd 7474 e53d 0edf 7a3e 002c 54be
00000120: 7fe8 033e ed67 62be 9ee7 a0be c228 af3e
00000130: 0328 99be c4ec 2f3e 7de8 a4bd 00e6 863d
00000140: 55f9 573e 979a 2d3d 6c2b 05bd 9f51 ae3e
00000150: 40a6 8cbe ab24 523e 702d 403e d77d b2bd
00000160: 4163 61be b2d3 803e a61c c3bd fa4d 213e
00000170: 5fa1 8cbd b96a 8bbd 342d b1bc 902c 203e
00000180: feb3 363e 1a5d 073e 8f97 acbe 4dd7 54bc
00000190: 886b 7fbe 51aa acbe 98ad 5a3e 64f8 fc3d
000001a0: 9d2c 6fbe c824 8b3d aeae e63d a064 71bd
000001b0: bbd3 8b3e 9d16 163e 9968 4c3d 2282 3e3e
000001c0: 0b53 70be 1ae3 57be 11c6 993e 5c80 bcbe
000001d0: 0da8 3fbe 277a 803d 6b69 c4bc d411 283e
000001e0: 73e2 e13c 83ce 473e b8eb c63b f415 60be
000001f0: 8b0b 8e3e 819b 18bc c1b1 a53d b489 863e

running_var f4 [128]
0.027188791 0.023272043 0.2886946 0.019035578 0.021861253 0.019828636 0.045547225 0.21674839
0.2533258 0.006909767 0.29239374 0.12546882 0.026497092 0.27509952 0.25951293 0.034256775
0.17524804 0.06003218 0.01824931 0.1525312 0.14465886 0.014809862 0.0059859897 0.026048962
0.24984151 0.017347187 0.10818034 0.01989755 0.030112907 0.0049692127 0.19383216 0.027875897
0.01622078 0.02504768 0.17666386 0.16541837 0.11941228 0.025432657 0.18724059 0.08896492
0.1348089 0.0033381395 0.032462683 0.0047538667 0.025285542 0.058617335 0.268054 0.076853335
0.22379209 0.05629076 0.09578154 0.28764373 0.07685931 0.047505286 0.14251496 0.07103767
0.04190974 0.05601869 0.0485788 0.19035669 0.06091181 0.02156823 0.21558589 0.106447145
0.10974391 0.03839716 0.007953632 0.038633242 0.041938793 0.07137257 0.010239689 0.17631373
0.027961435 0.10882251 0.01741155 0.061561726 0.298804 0.19056563 0.025502117 0.024082938
0.0227382 0.026872007 0.07534631 0.2359637 0.011296972 0.013267523 0.20084581 0.208137
0.17009348 0.020582763 0.18401252 0.04004555 0.05771198 0.144358 0.11635472 0.010873139
0.04088602 0.08990417 0.20580907 0.27648583 0.070064366 0.20071909 0.084369086 0.022436876
0.03455883 0.010735786 0.05505456 0.07785818 0.28392667 0.025100153 0.12266671 0.07178561
0.012880762 0.013506932 0.04641064 0.23390295 0.1272612 0.011423455 0.013931624 0.202405
0.013723737 0.033675127 0.051580556 0.17271204 0.065489486 0.019847622 0.0049115005 0.091023445
00000000: 07bb de3c 03a5 be3c c7cf 933e 80f0 9b3c
00000010: 5f16 b33c aa6f a23c ba8f 3a3d 4af3 5d3e
00000020: ebb3 813e 546b e23b a2b4 953e e67a 003e
00000030: 6e10 d93c d8d9 8c3e e1de 843e d550 0c3d
00000040: 3974 333e 4ee4 753d 947f 953c 2431 1c3e
00000050: 7421 143e 10a5 723c 1f26 c43b a264 d53c
00000060: 74d6 7f3e b01b 8e3c a78d dd3d 3000 a33c
00000070: 58af f63c c7d4 a23b f07b 463e fe5b e43c
00000080: 71e1 843c cb30 cd3c 5fe7 343e 6f63 293e
00000090: 6d8e f43d 2658 d03c ffbb 3f3e 3d33 b63d
000000a0: 580b 0a3e b0c4 5a3b 97f7 043d 53c6 9b3b
000000b0: a023 cf3c bb18 703d 603e 893e 4865 9d3d
000000c0: c129 653e 2491 663d 1d29 c43d 0a46 933e
000000d0: 6a68 9d3d e794 423d 71ef 113e 337c 913d
000000e0: 8ca9 2b3d db73 653d 90fa 463d ddec 423e
000000f0: a97e 793d dbaf b03c 8cc2 5c3e f600 da3d
00000100: 6ac1 e03d 5746 1d3d f34f 023c e43d 1e3d
00000110: 03c8 2b3d c82b 923d 5ec4 273c 968b 343e
00000120: 610f e53c 56de de3d aba2 8e3c 2628 7c3d
00000130: d6fc 983e a323 433e d1e9 d03c 9549 c53c
00000140: 7645 ba3c af22 dc3c 2b4f 9a3d 78a0 713e
00000150: ef16 393c 0660 593c 86aa 4d3e de21 553e
00000160: fc2c 2e3e 2f9d a83c c76d 3c3e cd06 243d
00000170: 6663 6c3d 95d2 133e 624b ee3d 4025 323c
00000180: 1978 273d ad1f b83d 9dbf 523e 8d8f 8d3e
00000190: e87d 8f3d 4e89 4d3e b3c9 ac3d 8acd b73c
000001a0: 8f8d 0d3d 26e5 2f3c e480 613d 1c74 9f3d
000001b0: d65e 913e d69e cd3c af38 fb3d 5504 933d
000001c0: d509 533c 2e4c 5d3c 1519 3e3d 4184 6f3e
000001d0: c350 023e 7129 3b3c 7741 643c 4243 4f3e
000001e0: 86d9 603c eeee 093d 2246 533d 6ddb 303e
000001f0: 5a1f 863d 7b97 a23c a7f0 a03b 806a ba3d

weight f4 [128, 128]
2.5346522e-05 -1.8836769e-05 -1.0783878e-06 -1.4661704e-05 1.7847224e-05 1.7403645e-05 -1.2967077e-05 -1.2701273e-06
-2.3589067e-05 1.3005468e-05 -9.086624e-06 7.46161e-06 1.1458183e-05 2.0876172e-05 -7.0079586e-06 -2.7608641e-05
1.6507662e-05 1.5217986e-05 -1.5653664e-05 3.21441e-06 -2.2791382e-05 1.1485812e-05 5.4519955e-06 3.202281e-06
-6.5019253e-06 -1.847521e-05 1.5508833e-05 1.1709258e-05 9.333865e-06 3.2470975e-06 1.6941014e-05 2.522547e-05
-2.080441e-05 -1.0317028e-05 7.244454e-06 1.5473614e-05 1.0042636e-05 4.1127046e-06 -8.7436565e-06 -6.732807e-06
-4.5095527e-07 5.7756642e-06 -1.4882481e-06 -2.8820898e-06 -1.2506104e-05 9.9441795e-06 2.4659188e-05 -1.6582027e-05
-1.8433249e-06 3.565114e-06 -1.4143838e-07 2.6831802e-05 -1.6120547e-06 -1.2460628e-05 2.0484189e-05 6.054866e-06
-2.03231e-06 -6.818171e-06 1.1967604e-05 1.3265282e-05 1.2549569e-05 1.4159839e-05 2.4202607e-05 -1.9915983e-06
-2.760079e-06 -3.4619563e-05 4.7502836e-06 1.49468715e-05 -5.6475014e-06 -1.01063615e-05 -1.2518419e-05 1.6428192e-05
-9.469515e-06 7.780988e-06 2.4522316e-05 -1.83478e-05 -3.1309335e-06 5.2201867e-06 -4.9062423e-06 1.5439115e-05
9.314873e-06 -1.0771198e-05 1.5773054e-05 7.22397e-06 -1.0220001e-05 -1.593108e-05 6.161091e-07 -2.1056196e-05
-1.893055e-06 4.934893e-06 1.0755566e-05 1.25176175e-05 -9.498752e-06 -1.7650804e-05 8.271093e-06 -1.9658305e-06
2.4080817e-05 1.12350535e-05 2.1793598e-05 -1.613918e-05 6.6638413e-06 1.1513086e-05 1.9585292e-05 -5.855156e-06
1.3610781e-06 -4.1777994e-06 -8.449853e-07 -4.2813813e-06 -1.5581494e-05 1.8232664e-07 1.2442527e-05 1.23886575e-05
-8.621937e-08 -1.0546464e-05 -1.6849388e-05 2.6214495e-06 1.2918582e-05 4.306172e-06 1.7074149e-07 6.7433916e-06
-2.43883e-06 -1.1556648e-05 2.3460261e-05 3.067353e-05 1.3629801e-07 3.578311e-06 -9.918313e-06 3.6900854e-06
-4.2963866e-06 6.8823006e-06 -3.1596617e-06 8.0212685e-06 1.8222004e-06 -4.7723165e-06 -1.0676139e-05 -5.048416e-06
8.547323e-06 -2.2359909e-05 -6.831869e-06 7.6325605e-06 -1.4526418e-05 -1.039109e-05 7.959439e-06 1.6437602e-05
-7.4555273e-06 -1.5753796e-05 -3.0886506e-06 7.102052e-06 5.1577054e-08 2.973748e-06 -9.972343e-06 7.577905e-06
-1.3510641e-05 2.77117e-06 1.16354495e-05 -1.8441758e-06 -8.167236e-06 -1.7866407e-05 1.0885148e-05 -7.35681e-06
8.798773e-06 3.2782034e-06 -2.718352e-05 1.9113925e-06 -1.7296987e-05 -2.085813e-06 1.6333135e-05 1.0041544e-05
6.1182013e-06 1.0957992e-05 1.1404211e-05 1.4573516e-07 7.51194e-06 3.7256457e-06 -7.021553e-06 -8.3204435e-07
-1.5067929e-05 -5.2109976e-06 6.8517625e-06 2.4849053e-06 1.4113829e-06 -4.6093538e-07 1.761027e-05 -1.5971142e-06
1.8171097e-05 2.3035507e-05 2.038993e-05 1.4332696e-05 4.1191165e-06 -4.535037e-06 -6.2201326e-07 1.997717e-05
-2.2059485e-06 2.100774e-05 1.7115462e-05 1.1866625e-05 -4.1390617e-06 3.9951815e-06 4.747084e-06 1.5605097e-05
-6.9365974e-06 1.0033898e-05 -1.6431342e-05 1.4683961e-05 -1.4439739e-05 5.611145e-07 -6.0056577e-06 6.6619846e-06
1.5180199e-05 8.452511e-06 -2.432874e-05 4.4989033e-06 1.1292333e-05 -1.5981404e-05 -1.5453894e-05 -2.768621e-06
4.5690194e-06 8.814565e-07 6.6721515e-07 7.5285755e-07 2.4580538e-06 -1.3181552e-05 -4.331583e-06 9.467706e-06
7.329124e-06 1.2985625e-05 7.391727e-06 -7.3995507e-06 -6.2030523e-07 -5.83103e-07 -2.1173712e-05 -1.0574183e-06
-2.6780222e-06 -1.8030048e-06 2.049781e-05 -4.944627e-07 5.797571e-06 4.819391e-06 -1.4042798e-05 -3.986156e-06
5.0658696e-06 -2.1685064e-05 9.403676e-06 -4.121256e-06 -1.8240061e-06 1.3265819e-05 1.1307239e-05 -2.631536e-06
8.021012e-06 1.0296688e-05 5.686805e-07 -6.355577e-07 -1.0545097e-05 9.132188e-06 -8.4467365e-06 -9.169915e-06
00000000: 3e9f d437 a703 9eb7 1fbd 90b5 8afb 75b7
00000010: 9fb6 9537 0bfe 9137 2c8d 59b7 3e79 aab5
00000020: 23e1 c5b7 0f32 5a37 c172 18b7 be5e fa36
00000030: 853c 4037 3d1f af37 e825 ebb6 1b99 e7b7
00000040: ef79 8a37 c150 7f37 fd4f 83b7 25b7 5736
00000050: 1f30 bfb7 30b3 4037 49f0 b636 c5e6 5636
00000060: 1d2b dab6 36fb 9ab7 f718 8237 e172 4437
00000070: a598 1c37 b6e8 5936 8d1c 8e37 499b d337
00000080: 2185 aeb7 4c17 2db7 6315 f336 55cd 8137
00000090: cb7c 2837 ddff 8936 b8b1 12b7 5fea e1b6
000000a0: d21a f2b4 94cc c136 d1bf c7b5 ed69 41b6
000000b0: 4fd1 51b7 edd5 2637 34db ce37 a219 8bb7
000000c0: 2968 f7b5 3140 6f36 49de 17b4 db14 e137
000000d0: c75d d8b5 fd0d 51b7 76d5 ab37 e72a cb36
000000e0: d262 08b6 a5c7 e4b6 78c8 4837 f48d 5e37
000000f0: fd8b 5237 0c90 6d37 b406 cb37 66a7 05b6
00000100: cc39 39b6 7934 11b8 a064 9f36 53c4 7a37
00000110: ab7f bdb6 7e8e 29b7 3306 52b7 46cf 8937
00000120: 42df 1eb7 178b 0237 46b5 cd37 9ae9 99b7
00000130: 071d 52b6 1029 af36 4da0 a4b6 3f83 8137
00000140: 1347 1c37 f1b5 34b7 6050 8437 6e65 f236
00000150: 9276 2bb7 bca3 85b7 b262 2535 d6a1 b0b7
00000160: e014 feb5 6896 a536 ce72 3437 c202 5237
00000170: d45c 1fb7 d010 94b7 13c4 0a37 b6ec 03b6
00000180: 2901 ca37 307e 3c37 65d1 b637 a062 87b7
00000190: f699 df36 5428 4137 184b a437 6877 c4b6
000001a0: 4aae b635 062f 8cb6 f3d2 62b5 c9a8 8fb6
000001b0: 01b5 82b7 91c5 4334 3fc0 5037 e1d8 4f37
000001c0: 9a27 b9b3 b8f0 30b7 c957 8db7 29ec 2f36
000001d0: e3bc 5837 bc7d 9036 1055 3734 4b45 e236
000001e0: c8aa 23b6 6de3 41b7 87cc c437 74a7 0038
000001f0: 5059 1234 ea22 7036 d466 26b7 2fa3 7736
00000200: ae29 90b6 83ee e636 930a 54b6 1693 0637
00000210: 5492 f435 e321 a0b6 ab1d 33b7 9065 a9b6
00000220: 7966 0f37 8a91 bbb7 4f3d e5b6 990d 0037
00000230: 7eb6 73b7 6455 2eb7 8889 0537 7be3 8937
00000240: 7e2a fab6 0527 84b7 9d46 4fb6 2a4e ee36
00000250: 9285 5d33 9a90 4736 e34e 27b7 b545 fe36
00000260: c3ab 62b7 57f8 3936 e035 4337 6685 f7b5
00000270: 0306 09b7 d1df 95b7 5b9f 3637 84da f6b6
00000280: 719e 1337 1bff 5b36 2a08 e4b7 7945 0036
00000290: ff18 91b7 fff9 0bb6 2403 8937 1a78 2837
000002a0: f34a cd36 38d8 3737 b754 3f37 607b 1c34
000002b0: 130f fc36 1b06 7a36 ae9a ebb6 a759 5fb5
000002c0: 43cc 7cb7 21da aeb6 31e8 e536 59c2 2636
000002d0: bf6e bd35 7a76 f7b4 c4b9 9337 6d5c d6b5
000002e0: 226e 9837 603c c137 0b0b ab37 7676 7037
000002f0: f136 8a36 ac2b 98b6 6df8 26b5 a594 a737
00000300: e809 14b6 c739 b037 2d93 8f37 c416 4737
00000310: 45e2 8ab6 590e 8636 2449 9f36 b1e7 8237
00000320: ebc0 e8b6 4457 2837 0ad6 89b7 225b 7637
00000330: 3542 72b7 7f9f 1635 3584 c9b6 038a df36
00000340: 75ae 7e37 42cf 0d37 9215 ccb7 49f5 9636
00000350: 3374 3d37 ce0f 86b7 fca2 81b7 8ccc 39b6
00000360: 944f 9936 3b9d 6c35 ad1a 3335 fa17 4a35
00000370: 0bf5 2436 5626 5db7 0458 91b6 7dd7 1e37
00000380: b2ec f536 d6dc 5937 7406 f836 a849 f8b6
00000390: 0d83 26b5 8886 1cb5 339e b1b7 9eec 8db5
000003a0: 12b8 33b6 c6fe f1b5 b6f2 ab37 38bb 04b5
000003b0: c188 c236 41b6 a136 5c99 6bb7 d2c0 85b6
000003c0: 7dfb a936 52e8 b5b7 7bc4 1d37 5249 8ab6
000003d0: 5fd0 f4b5 4290 5e37 39b4 3d37 7299 30b6
000003e0: fc91 0637 f0bf 2c37 6da7 1835 319b 2ab5
000003f0: d9ea 30b7 7336 1937 75b6 0db7 7cd8 19b7

bias f4 [128]
3.8257597e-10 2.2261986e-11 9.996457e-11 1.6655463e-10 -1.0777595e-09 -8.7004015e-11 -4.3574012e-11 1.0852699e-10
-3.2126886e-09 1.690554e-09 3.5084913e-10 2.0762735e-10 2.775018e-10 5.8740457e-10 -1.1526593e-10 -9.774885e-11
5.5862318e-11 8.0015733e-10 -5.793634e-10 -5.3041405e-10 1.485694e-10 -2.1685216e-10 3.7103914e-10 1.5462637e-10
-7.8760287e-10 1.8899678e-10 -3.249819e-10 1.254139e-10 7.5803905e-11 -2.2427869e-11 -9.353256e-10 -4.753165e-10
-1.3818399e-11 5.599876e-10 -9.151996e-10 -1.6105052e-10 -4.81674e-10 -2.8872799e-10 8.7552465e-11 -2.192726e-10
-3.8063916e-10 -4.245655e-12 1.6786847e-10 -3.9290127e-11 6.8707444e-12 -3.6293588e-10 -4.4841872e-10 -4.423848e-10
1.3026835e-10 6.702273e-10 9.854083e-12 -2.7692912e-09 -1.5352816e-10 7.335022e-12 -2.668191e-11 -1.6984812e-09
-1.1418674e-10 3.0435758e-11 -1.1664585e-09 -7.945719e-10 1.6877962e-10 -2.0015167e-10 1.08252074e-10 6.085983e-10
3.0719988e-10 -1.6018305e-10 -2.0828562e-10 -7.98274e-11 -1.1330938e-09 -1.0279677e-10 6.341318e-10 -7.826758e-10
3.919874e-11 -6.025689e-09 -3.3008858e-09 -3.0303476e-10 -8.652308e-10 -3.0061842e-11 -4.7189815e-11 1.5637494e-10
-2.464896e-10 9.420288e-11 2.5888816e-10 2.9653172e-10 6.5960567e-13 2.3171771e-09 -2.414616e-11 1.1104256e-10
2.8267477e-10 2.033431e-09 -5.4063554e-10 1.8417553e-09 4.445238e-10 -3.9458277e-11 4.998371e-10 -3.553845e-10
-4.609826e-11 -8.4864865e-10 -2.259462e-10 -1.0982493e-08 2.3897402e-09 4.5798445e-11 -1.5779272e-11 -3.0770703e-10
2.4880223e-10 2.43982e-10 -3.730805e-10 1.9351975e-11 1.06594586e-11 -4.569264e-10 0.011034691 -1.2512399e-09
1.7811447e-11 -3.0475716e-11 1.8196938e-10 5.0315957e-10 1.0405104e-10 0.00015486835 7.6797163e-10 2.4635115e-11
6.607343e-11 -6.8253576e-11 -2.610099e-10 1.4042405e-11 7.6197654e-10 4.5484358e-10 2.345362e-10 -3.1107206e-09
00000000: c852 d22f 89d1 c32d 0dd3 db2e f620 372f
00000010: 4b20 94b0 e852 bfae faa3 3fae 44a7 ee2e
00000020: 37c6 5cb1 1559 e830 a0e1 c02f e749 642f
00000030: e88e 982f ec76 2130 f378 fdae b6f3 d6ae
00000040: 61af 752e 11f2 5b30 1341 1fb0 92cc 11b0
00000050: 925a 232f 756e 6eaf 1efb cb2f 7403 2a2f
00000060: a07e 58b0 ddcd 4f2f 23a9 b2af e0e4 092f
00000070: ceb1 a62e 1247 c5ad d88c 80b0 6da7 02b0
00000080: 8918 73ad a0ed 1930 7291 7bb0 b113 31af
00000090: cb66 04b0 daba 9eaf a887 c02e c017 71af
000000a0: 3342 d1af 7661 95ac c692 382f c0cc 2cae
000000b0: 2abe f12c af86 c7af 5385 f6af 2034 f3af
000000c0: 483b 0f2f 0e3b 3830 d85a 2d2d e34d 3eb1
000000d0: 56ce 28af 010a 012d 52b2 eaad ff6f e9b0
000000e0: 6c19 fbae 9edb 052e 1c51 a0b0 0769 5ab0
000000f0: 3d93 392f b011 5caf 800c ee2e 4c4a 2730
00000100: 8ae2 a82f 851f 30af 3103 65af d58a afae
00000110: 32bb 9bb0 700d e2ae 0f4f 2e30 ea23 57b0
00000120: dc65 2c2e 850a cfb1 ccd5 62b1 5a98 a6af
00000130: 34d5 6db0 a036 04ae 028b 4fae a2ef 2b2f
00000140: 5482 87af 8227 cf2e 4553 8e2f 2105 a32f
00000150: 99a9 392b 363c 1f31 5264 d4ad 672f f42e
00000160: f066 9b2f 7fbc 0b31 d89b 14b0 0121 fd30
00000170: 2a61 f42f 128a 2dae e964 0930 ec5f c3af
00000180: 07be 4aae 5746 69b0 346e 78af 84ad 3cb2
00000190: c138 2431 776c 492e c3cb 8aad ea29 a9af
000001a0: cdc7 882f 6a21 862f 6a1a cdaf c638 aa2d
000001b0: ef85 3b2d ad32 fbaf d9ca 343c 17f8 abb0
000001c0: d0ab 9c2d 9b08 06ae d413 482f b54e 0a30
000001d0: 87cf e42e 2864 2239 3319 5330 59b1 d82d
000001e0: 094c 912e 5917 96ae e17d 8faf 5f09 772d
000001f0: 5573 5130 8b0d fa2f 09f0 802f 60c4 55b1

weight f4 [128]
-2.0725476e-05 1.2379648e-05 1.8045192e-06 -1.7344659e-05 -1.623779e-05 1.2663899e-05 8.327243e-06 2.6270363e-05
3.9417784e-05 4.851537e-07 -1.1272362e-05 -5.0885883e-06 1.623398e-06 -1.322399e-05 1.5309555e-05 -1.4626061e-05
-1.7152031e-05 -8.6099335e-06 1.3247598e-06 -3.0861922e-06 6.7860174e-06 -3.767066e-05 -2.2629321e-05 -1.7607192e-06
7.226001e-06 3.590638e-06 -1.3995983e-05 -1.0666431e-05 -2.0709656e-05 1.711903e-05 -8.677031e-06 -2.858151e-05
-1.3429447e-07 1.0268037e-05 2.6340147e-05 3.2960354e-06 -7.1563118e-06 -2.0052492e-05 9.4646975e-06 -6.180861e-06
1.2712922e-05 7.484271e-06 -4.920586e-06 -5.8670753e-06 -2.7504022e-06 1.6001266e-05 -8.4198e-06 -4.624401e-07
-7.947378e-07 1.5128086e-06 -2.596286e-06 1.8870925e-05 -2.662982e-06 -4.73273e-06 -8.276496e-06 5.6538597e-06
1.8843136e-06 5.7697844e-07 6.9108987e-06 1.1485946e-05 1.3603749e-05 1.0873195e-05 3.845967e-06 -3.8425154e-05
-3.2233288e-06 1.5681257e-05 6.7728133e-06 -6.217069e-06 1.48279405e-05 8.8480065e-06 7.815311e-06 8.542534e-06
-1.3991052e-05 -3.5051569e-06 -2.9147035e-05 -2.2626979e-05 8.240409e-06 6.8607997e-06 -4.33639e-06 -6.96763e-06
-5.526871e-06 2.8806664e-06 2.1810986e-06 -1.6672087e-05 -2.8992333e-06 -2.5741517e-06 -3.2658156e-06 -2.4999758e-07
1.1886458e-06 -1.23961545e-05 -1.141727e-05 3.255184e-05 4.7460776e-06 -2.2752502e-05 -1.27885205e-05 2.4004059e-05
1.0335954e-06 2.3574153e-06 -7.922002e-06 4.864781e-05 1.1062684e-06 2.3331473e-05 -3.479985e-07 7.8942185e-06
1.07178856e-07 3.0924095e-06 1.0639912e-05 5.657366e-06 -7.515409e-06 -1.1065362e-05 0.53145623 -6.582964e-06
-2.3312984e-06 -9.943547e-06 8.204133e-07 -4.5858865e-06 1.3458619e-05 7.2229554e-06 -7.669475e-06 1.8594535e-06
1.2628377e-05 -3.9203014e-06 -2.1770467e-05 5.1422735e-06 8.859266e-06 9.817005e-06 -2.4937799e-05 -1.54016e-05
00000000: 9fdb adb7 2fb2 4f37 cf32 f235 5f7f 91b7
00000010: 6336 88b7 0877 5437 3db5 0b37 2d5f dc37
00000020: 8654 2538 823b 0235 6d1e 3db7 a4be aab6
00000030: 88e3 d935 9bdc 5db7 056d 8037 7462 75b7
00000040: b5e1 8fb7 6273 10b7 66ce b135 611c 4fb6
00000050: 72b3 e336 9000 1eb8 19d4 bdb7 da51 ecb5
00000060: e076 f236 b1f6 7036 4ad0 6ab7 f9f3 32b7
00000070: a6b9 adb7 d69a 8f37 9093 11b7 53c2 efb7
00000080: 9532 10b4 e244 2c37 09f5 dc37 7531 5d36
00000090: 4020 f0b6 6636 a8b7 91ca 1e37 3165 cfb6
000000a0: 9649 5537 6621 fb36 831b a5b6 cbdd c4b6
000000b0: 8d93 38b6 753a 8637 c442 0db7 4945 f8b4
000000c0: f755 55b5 b50b cb35 db3b 2eb6 014d 9e37
000000d0: afb5 32b6 d7cd 9eb6 48db 0ab7 49b6 bd36
000000e0: 86e8 fc35 a8e1 1a35 2be4 e736 c3b3 4037
000000f0: a83b 6437 046c 3637 9b0c 8136 b22a 21b8
00000100: 5e50 58b6 3e8b 8337 0642 e336 379c d0b6
00000110: 85c5 7837 e671 1437 811e 0337 e751 0f37
00000120: 1cbb 6ab7 233a 6bb6 c880 f4b7 11cf bdb7
00000130: 4a40 0a37 d235 e636 4e81 91b6 7ccb e9b6
00000140: 7673 b9b6 7951 4136 fd5e 1236 09db 8bb7
00000150: 7390 42b6 97bf 2cb6 492a 5bb6 6837 86b4
00000160: 8f89 9f35 14f9 4fb7 cd8c 3fb7 4688 0838
00000170: 7f40 9f36 a0dc beb7 478e 56b7 535c c937
00000180: 11ba 8a35 1634 1e36 bde8 04b7 300b 4c38
00000190: 187b 9435 f5b7 c337 8dd4 bab4 6971 0437
000001a0: 332a e633 3187 4f36 1382 3237 67d4 bd36
000001b0: df2c fcb6 5ea5 39b7 840d 083f 3be3 dcb6
000001c0: 6773 1cb6 36d3 26b7 5f3a 5c35 77e0 99b6
000001d0: 54cc 6137 b75c f236 25ac 00b7 5692 f935
000001e0: 77de 5337 228b 83b6 b99f b6b7 cb8b ac36
000001f0: 42a2 1437 b7b3 2437 8431 d1b7 af32 81b7

bias f4 [128]
-4.673567e-06 -1.2101333e-05 8.55786e-06 -1.726199e-05 1.48899335e-05 -1.8226452e-05 1.443262e-05 3.9735358e-05
3.6096757e-05 2.8555305e-05 1.6354032e-05 -4.068026e-06 2.5574183e-05 -4.0180716e-06 8.358394e-06 2.0664771e-05
4.0231535e-06 1.862777e-05 -3.742279e-06 2.6241305e-05 1.2663618e-05 -3.5645703e-06 1.4216382e-05 -1.9878615e-05
-1.7353583e-05 2.9624165e-05 3.0228699e-05 -5.4052766e-06 -1.173835e-06 2.2456243e-06 -1.7381326e-05 -8.525377e-06
1.6387947e-05 -1.6193304e-05 -2.3268913e-05 1.0873782e-05 -4.6040273e-05 2.204459e-06 -1.346475e-05 7.726071e-06
-2.8452747e-05 6.51294e-08 1.40855955e-05 6.131984e-06 -2.212471e-06 -3.7530124e-05 7.006048e-06 -1.6525448e-07
6.345337e-06 1.5393925e-06 -1.323585e-05 -4.655272e-06 2.3996022e-06 1.0459857e-05 7.0008696e-08 8.553704e-06
-4.2485212e-07 7.509092e-06 6.035146e-06 1.0551502e-05 -4.8085003e-06 -3.2514756e-05 1.8688783e-05 -4.3302293e-06
5.6469903e-06 -2.1055035e-05 1.0995549e-06 3.0481902e-05 -1.1840822e-06 5.33366e-07 1.162906e-05 1.0421439e-05
8.5230895e-06 -5.129608e-05 -4.5604746e-05 1.5566557e-05 -4.113814e-06 7.640088e-06 -1.3337296e-05 6.4314154e-06
1.99638e-05 -4.2765864e-06 -4.641184e-06 -2.360072e-05 3.139047e-06 2.2427317e-05 -3.91997e-06 3.3424071e-06
-1.855566e-05 -7.592537e-06 3.397466e-06 -2.585076e-05 -9.023463e-06 -1.2738408e-06 8.381331e-06 -4.639587e-06
-1.7419186e-05 -6.0842112e-06 4.0251366e-06 2.1133268e-05 3.181354e-05 1.4939131e-05 1.3111316e-05 -1.0009434e-06
-1.6155294e-05 1.5909396e-05 -5.2586565e-06 -7.181825e-06 -4.164135e-06 -1.3920709e-06 0.01789702 1.4894655e-05
-9.2421163e-07 -3.5002938e-06 -2.6147668e-06 1.715586e-05 -5.6872295e-06 3.4836878e-06 3.792108e-05 8.2524036e-07
2.3609591e-05 3.298472e-06 1.2037599e-05 2.7916083e-05 -8.202929e-06 -2.607118e-07 5.2930533e-05 -8.048988e-06
00000000: a3d1 9cb6 d406 4bb7 bb93 0f37 d7cd 90b7
00000010: c7cf 7937 02e5 98b7 a223 7237 84a9 2638
00000020: 9966 1738 0d8a ef37 0430 8937 1480 88b6
00000030: 2488 d637 f9d2 86b6 073b 0c37 4259 ad37
00000040: a0fe 8636 d542 9c37 dd23 7bb6 c620 dc37
00000050: d375 5437 da36 6fb6 e582 6e37 00c1 a6b7
00000060: 8992 91b7 6981 f837 a393 fd37 f95e b5b6
00000070: aa8c 9db5 88b3 1636 1dce 91b7 3708 0fb7
00000080: d978 8937 dbd6 87b7 9c31 c3b7 8a6e 3637
00000090: 5e1b 41b8 51f0 1336 a9e6 61b7 399f 0137
000000a0: cfad eeb7 44dd 8b33 2c51 6c37 57c1 cd36
000000b0: f679 14b6 aa69 1db8 7e15 eb36 ce70 31b4
000000c0: 08ea d436 209d ce35 8b0f 5eb7 7b34 9cb6
000000d0: da08 2136 be7c 2f37 b057 9633 e181 0f37
000000e0: 3b17 e4b4 9cf6 fb36 8281 ca36 5b06 3137
000000f0: b458 a1b6 7460 08b8 dbc5 9c37 634c 91b6
00000100: 477b bd36 589f b0b7 6b94 9335 63b3 ff37
00000110: c1ec 9eb5 a22c 0f35 6f1a 4337 bdd7 2e37
00000120: 64fe 0e37 bf26 57b8 b947 3fb8 ed94 8237
00000130: 6509 8ab6 ee2d 0037 40c3 5fb7 70cd d736
00000140: ef77 a737 997f 8fb6 78bb 9bb6 29fa c5b7
00000150: 6ba8 5236 4c22 bc37 4988 83b6 1e4e 6036
00000160: faa7 9bb7 65c3 feb6 0500 6436 16da d8b7
00000170: 7a63 17b7 d6f8 aab5 8b9d 0c37 c0ad 9bb6
00000180: 6b1f 92b7 fa26 ccb6 a90f 8736 5947 b137
00000190: 876f 0538 14a3 7a37 acf8 5b37 2758 86b5
000001a0: 3b85 87b7 2b75 8537 8473 b0b6 68fb f0b6
000001b0: a6b9 8bb6 31d7 bab5 c59c 923c 0ee4 7937
000001c0: 5717 78b5 97e6 6ab6 5a79 2fb6 eee9 8f37
000001d0: eed4 beb6 4dc9 6936 730d 1f38 1686 5d35
000001e0: 360d c637 515b 5d36 18f5 4937 552d ea37
000001f0: 509f 09b7 f5f7 8bb4 ba01 5e38 240a 07b7

running_mean f4 [128]
0.099382356 0.09994061 -0.18020551 0.025169067 -0.031746615 0.024975585 0.034636077 0.18977407
-0.115815476 0.11602085 -0.10057404 0.028125789 0.020071091 -0.0073572583 0.08821158 0.098071575
0.2009115 -0.12840179 0.085996635 0.028451396 -0.098903075 0.11875699 -0.18355028 0.046206977
-0.11980916 -0.059220694 0.097891495 -0.019046381 0.06660483 0.02112253 -0.016226536 -0.078663915
-0.056557532 0.08935045 0.03807277 0.12657715 -0.06211051 0.12060135 0.15898523 0.099092394
-0.26608184 -0.039045792 -0.14360286 0.059264172 0.07954808 -0.009642166 0.00061006605 -0.19239719
0.23463088 -0.14388874 -0.16454445 -0.16594346 0.051885355 0.029951163 0.03784732 -0.05768754
-0.030462615 0.15140049 0.0021999523 -0.042453017 0.11334392 -0.053488713 -0.09182917 0.33838177
-0.28725538 -0.019227283 0.07944172 0.13860868 -0.035827324 0.012448285 -0.05779392 -0.008514281
-0.13336909 0.048071053 0.00210684 0.20612301 -0.1148743 0.074504964 0.082525685 -0.05488974
-0.034396607 0.016729653 0.04298776 0.19630279 -0.15901375 0.062227197 -0.0784907 0.089180626
-0.06796238 0.14805835 0.06634105 -0.1589332 0.07855483 0.07707471 -0.022885526 0.020749714
0.28237998 -0.07612999 -0.028984727 -0.057219576 0.17024618 -0.059872873 -0.11513569 -0.10132739
0.07453508 -0.04784944 0.14470893 0.10310473 0.23507527 0.102541715 0.0050127627 0.08951603
-0.19489107 0.11023072 0.06705799 0.094939545 0.08083649 -0.047670126 -0.07153434 -0.008970363
-0.03723487 -0.0020617533 0.082560994 -0.118369006 -0.14769155 -0.0066118035 -0.05786393 0.06706033
00000000: fa88 cb3d aaad cc3d cb87 38be 5c2f ce3c
00000010: bd08 02bd 9999 cc3c 8fde 0d3d 2254 423e
00000020: aa30 edbd 579c ed3d c3f9 cdbd 0e68 e63c
00000030: 216c a43c 2815 f1bb 46a8 b43d c0d9 c83d
00000040: bfbb 4d3e c27b 03be 011f b03d e712 e93c
00000050: b28d cabd dd36 f33d 9bf4 3bbe 8743 3d3d
00000060: 815e f5bd 6691 72bd 567b c83d 2807 9cbc
00000070: 1d68 883d 2809 ad3c 83ed 84bc 8c1a a1bd
00000080: dfa8 67bd 5efd b63d 31f2 1b3d 719d 013e
00000090: 9767 7ebd d7fd f63d 06cd 223e f4f0 ca3d
000000a0: e13b 88be 7bee 1fbd a10c 13be fdbe 723d
000000b0: 1bea a23d 2dfa 1dbc d7ec 1f3a c503 45be
000000c0: 1443 703e 9257 13be 577e 28be 15ed 29be
000000d0: bd85 543d 245c f53c cb05 1b3d c549 6cbd
000000e0: bc8c f9bc bb08 1b3e 132d 103b 37e3 2dbd
000000f0: db20 e83d fb16 5bbd ef10 bcbd 6040 ad3e
00000100: 2313 93be 8982 9dbc 57b2 a23d 6fef 0d3e
00000110: acbf 12bd e4f3 4b3c 51b9 6cbd 7c7f 0bbc
00000120: e891 08be 27e6 443d e912 0a3b e911 533e
00000130: 3843 ebbd 0f96 983d 3a03 a93d 10d4 60bd
00000140: 75e3 0cbd a00c 893c ef13 303d 9903 493e
00000150: 80d4 22be f2e1 7e3d bbbf a0bd 55a4 b63d
00000160: dc2f 8bbd 9c9c 173e d1dd 873d 63bf 22be
00000170: 5be1 a03d 58d9 9d3d 6d7a bbbc 4efb a93c
00000180: 1c94 903e 0aea 9bbd 6171 edbc 135f 6abd
00000190: 0455 2e3e 423d 75bd 43cc ebbd bc84 cfbd
000001a0: d9a5 983d c6fd 43bd 942e 143e 9328 d33d
000001b0: 92b7 703e 6401 d23d 1a42 a43b 2e54 b73d
000001c0: 8691 47be a5c0 e13d b355 893d aa6f c23d
000001d0: 9a8d a53d c041 43bd 9980 92bd 6ef8 12bc
000001e0: 9783 18bd 7b1e 07bb bd15 a93d 736b f2bd
000001f0: 743c 17be d4a7 d8bb ba02 6dbd ed56 893d

running_var f4 [128]
0.060777266 0.10117359 0.06728031 0.038821686 0.058149572 0.04789461 0.057527322 0.07170766
0.09677812 0.07219297 0.07115715 0.05077445 0.045896128 0.03602359 0.077231176 0.055392552
0.051997367 0.046981655 0.042520266 0.05634768 0.06524922 0.10232648 0.06050127 0.04567457
0.03138818 0.05654966 0.05001859 0.044592712 0.07955888 0.06804138 0.04985211 0.08578465
0.09101818 0.07661901 0.045816228 0.14931975 0.058481596 0.03990598 0.07920681 0.07075084
0.049922742 0.04744623 0.07026554 0.058631465 0.08501771 0.07863479 0.05791668 0.07356646
0.0743482 0.06575379 0.056013428 0.035965808 0.07161522 0.095776826 0.05140606 0.11320002
0.06300482 0.05494265 0.029251786 0.040961187 0.042517953 0.093168624 0.06993296 0.100840315
0.059460618 0.0295788 0.05534514 0.041188 0.08823927 0.114148095 0.07915804 0.040944047
0.04978308 0.04035951 0.057610467 0.06880543 0.07365034 0.06289469 0.064613245 0.03287262
0.06382131 0.040486135 0.05235803 0.057002563 0.06157477 0.089589424 0.065019414 0.1430152
0.068999685 0.053460144 0.05231698 0.068299636 0.060487237 0.091413386 0.038732536 0.038450606
0.045850947 0.04824967 0.031992916 0.046445645 0.04554458 0.04922553 0.0456031 0.052526448
0.061500404 0.08155385 0.055411037 0.0626252 0.11011122 0.06636157 0.054117482 0.04625236
0.049792957 0.079080164 0.06432956 0.034503814 0.06670461 0.052600026 0.06944784 0.05242265
0.05121771 0.03213585 0.04396761 0.050269216 0.04870178 0.076197594 0.076563485 0.034605794
00000000: 95f1 783d 1934 cf3d 42ca 893d 7d03 1f3d
00000010: 3f2e 6e3d 232d 443d c5a1 6b3d 77db 923d
00000020: 9b33 c63d e8d9 933d d7ba 913d dff8 4f3d
00000030: 94fd 3b3d 798d 133d 612b 9e3d 4de3 623d
00000040: 31fb 543d d66f 403d bb29 2e3d d3cc 663d
00000050: 62a1 853d 8c90 d13d 2ed0 773d 4215 3b3d
00000060: e490 003d 9ea0 673d 4be0 4c3d d9a6 363d
00000070: c4ef a23d 4759 8b3d ba31 4c3d ddaf af3d
00000080: bd67 ba3d 6dea 9c3d cca9 3b3d 47e7 183e
00000090: 668a 6f3d 7474 233d 2e37 a23d d1e5 903d
000000a0: ca7b 4c3d fa56 423d 61e7 8f3d 8c27 703d
000000b0: c41d ae3d 470b a13d 0a3a 6d3d 03aa 963d
000000c0: de43 983d eca9 863d 566e 653d e250 133d
000000d0: 00ab 923d a426 c43d 298f 523d 69d5 e73d
000000e0: ac08 813d 8b0b 613d 71a1 ef3c ebc6 273d
000000f0: 4e27 2e3d 31cf be3d 0339 8f3d 5e85 ce3d
00000100: fa8c 733d 3d4f f23c 96b1 623d c0b4 283d
00000110: cab6 b43d 7ac6 e93d 9c1d a23d f2b4 273d
00000120: 58e9 4b3d 0350 253d f4f8 6b3d dce9 8c3d
00000130: fdd5 963d eece 803d f353 843d 71a5 063d
00000140: bfb4 823d cad4 253d 6075 563d 857b 693d
00000150: d335 7c3d a97a b73d e628 853d 9472 123e
00000160: b54f 8d3d 06f9 5a3d 544a 563d aee0 8b3d
00000170: 77c1 773d f136 bb3d 02a6 1e3d 627e 1d3d
00000180: 34ce 3b3d 72a1 453d 010b 033d ca3d 3e3d
00000190: f48c 3a3d b6a0 493d 51ca 3a3d f925 573d
000001a0: d9e7 7b3d b405 a73d aff6 623d a441 803d
000001b0: fe81 e13d 93e8 873d 4baa 5d3d 1d73 3d3d
000001c0: b3f3 4b3d c8f4 a13d 37bf 833d df53 0d3d
000001d0: 6d9c 883d 2073 573d ab3a 8e3d 22b9 563d
000001e0: a9c9 513d e2a0 033d 6117 343d 18e7 4d3d
000001f0: 857b 473d 7c0d 9c3d 51cd 9c3d cebe 0d3d
