src/model.pt (torch, 11072 bytes, 3 tensors)

bias f4 [64]
0	0xbd4606db	-0.04834638
1	0xbd62b663	-0.05534972
2	0xbde02d77	-0.10946172
3	0xbcbaee6c	-0.022818767
4	0xbd111350	-0.03541881
5	0xbdc4ba4b	-0.09605845
6	0xbd0807cd	-0.033210564
7	0xbd797569	-0.060902987
8	0xbdbe03dd	-0.092780806
9	0xbd2664c1	-0.04062343
10	0xbd9b298e	-0.07576285
11	0xbd819078	-0.06326383
12	0xbc76fa21	-0.015074284
13	0xbde2535d	-0.110510565
14	0xbdd148b8	-0.10218948
15	0xbd8a9800	-0.06767273
16	0xbe10178d	-0.14071484
17	0xbdc201a9	-0.09472973
18	0xbd747378	-0.059680432
19	0xbdecc8f4	-0.11561766
20	0xbd81e449	-0.0634237
21	0xbd74fcba	-0.05981133
22	0xbd4b81bd	-0.049684275
23	0xbd5d15c0	-0.05397582
24	0xbddaa115	-0.10675255
25	0xbdfcca9a	-0.12343331
26	0xbc95f359	-0.018304514
27	0xbdc34cbb	-0.095361196
28	0xbd9b3d1a	-0.075800136
29	0xbd9eefde	-0.07760595
30	0xbdece474	-0.115670115
31	0xbd35f89c	-0.044426546
32	0xbd8a180b	-0.06742867
33	0xbd70aa67	-0.05875626
34	0xbd9c2cbd	-0.07625721
35	0x00000000	0.0
36	0xbd9c40a6	-0.07629518
37	0xbdf09cd1	-0.1174866
38	0xbcad8c75	-0.02118514
39	0xbc92400e	-0.01785281
40	0x00000000	0.0
41	0xbd9a0f33	-0.0752243
42	0xbddae538	-0.10688251
43	0xbd7a8a9b	-0.06116734
44	0xbc051825	-0.008123432
45	0xbd1b3889	-0.037895713
46	0xbd7472ee	-0.059679918
47	0xbdeefbf3	-0.11669149
48	0xbd0eacdc	-0.03483282
49	0xbd924df6	-0.07143776
50	0xbe0920bb	-0.13391392
51	0xbd733f57	-0.059386577
52	0xbd77984c	-0.060447976
53	0xbda3bd9d	-0.0799515
54	0xbd3d391e	-0.04619705
55	0xbdc5e471	-0.09662712
56	0xbd2f806d	-0.042847086
57	0xbdf6b2bd	-0.1204581
58	0xbd877bab	-0.06615385
59	0xbe048b23	-0.12943701
60	0xbe13e6a9	-0.14443459
61	0xbe1a72e1	-0.15082885
62	0xbdd252a4	-0.10269669
63	0xbdb10ff3	-0.0864562

weight f4 [64, 16]
0	0xbb181b28	-0.0023209546
1	0x3e2f645b	0.17128126
2	0xbe65da3e	-0.22446534
3	0x3dd2293d	0.10261772
4	0xbdf6eea1	-0.120572336
5	0x3d22fd70	0.039792478
6	0x3cbb25ee	0.022845235
7	0xbe117cd2	-0.14207771
8	0xbd02025d	-0.031740535
9	0x3e159e6e	0.14611217
10	0xbc0f6c0c	-0.008753788
11	0xbe128654	-0.14309055
12	0xbc9c2a6c	-0.019063197
13	0x3caa108d	0.020759845
14	0xbe843e2c	-0.25828683
15	0xbe1b9ef6	-0.15197358
16	0x3e2f8cc6	0.17143545
17	0x3e0dbec5	0.13842304
18	0x3c64b0fd	0.013958213
19	0xbd989100	-0.074495316
20	0xbdfe4662	-0.12415768
21	0xbe81bd40	-0.253397
22	0xbddb766b	-0.10715946
23	0xbe0db952	-0.13840225
24	0xbde75c9a	-0.11296959
25	0x3e02949d	0.12752004
26	0xbe84eaa3	-0.25960264
27	0xbe3d3a4e	-0.18479273
28	0xbe9e4096	-0.3090865
29	0x3d5a3d08	0.05328086
30	0x3cbbab10	0.022908717
31	0xbe433c7d	-0.19066043
32	0x3da0d5ed	0.07853303
33	0x3d089f6d	0.033355165
34	0x3d4e323a	0.05034087
35	0x3e76002a	0.240235
36	0x3da0c72e	0.078504905
37	0xbe31f0df	-0.17377041
38	0x3dff6278	0.12469953
39	0x3e23cf54	0.15997058
40	0xbdb5b749	-0.088728495
41	0x3cb24085	0.021759281
42	0xbdc276f8	-0.09495348
43	0x3e2a4070	0.16626143
44	0x3d787a63	0.060663592
45	0xbe3142f0	-0.17310691
46	0xbea289fc	-0.317459
47	0xbe185a38	-0.14878166
48	0x3e40fee7	0.18847238
49	0xbcb3930d	-0.021920705
50	0xbd8cd783	-0.06877043
51	0x3ddfb589	0.10923297
52	0x3e701156	0.23444113
53	0x3e64caf6	0.22343048
54	0xbe8d6402	-0.27615362
55	0xbe1eb230	-0.1549766
56	0xbc9b6fe3	-0.01897425
57	0x3e8dcc74	0.27695048
58	0x3e4353ec	0.19074982
59	0xbe765cc1	-0.2405882
60	0x3caa3c40	0.020780683
61	0x3e004282	0.1252537
62	0xbdaeb2f0	-0.08530223
63	0xbe0d39a3	-0.13791518
64	0xbe20d1b1	-0.15704991
65	0xbdbbf081	-0.09176732
66	0xbe3891a3	-0.18024306
67	0x3d2f92c5	0.04286458
68	0xbab6c2f6	-0.0013943601
69	0x3e9f3ce1	0.31101134
70	0x3c8aea38	0.016957387
71	0xbe10b013	-0.14129667
72	0x3e697e26	0.22802028
73	0x3d931886	0.07182412
74	0xbc1924f4	-0.009347189
75	0x3a4196e0	0.0007384848
76	0xbe8cfc10	-0.27536058
77	0xbe402e7f	-0.18767737
78	0xbd986130	-0.07440412
79	0x3e06880a	0.13137832
80	0xbdb396c2	-0.08768989
81	0xbbb2b453	-0.005453625
82	0xbea57775	-0.323177
83	0x3e0861a7	0.13318501
84	0xbd842a8b	-0.06453427
85	0x3e5313f1	0.20613076
86	0xbd6bc163	-0.057557475
87	0x3dd8a4a6	0.10578279
88	0x3e6a6dac	0.22893399
89	0x3e59cc90	0.2126944
90	0x3e0b8213	0.13623838
91	0xbdc3078c	-0.09522924
92	0xbe8f22b4	-0.27956164
93	0xbe1d4461	-0.15358116
94	0xbd5c6d19	-0.05381498
95	0x3d5727aa	0.05252806
96	0x3e5862c5	0.21131428
97	0x3d6f7ba4	0.058467522
98	0xbd406a3e	-0.04697632
99	0x3db7f7d2	0.08982815
100	0x3e002ee3	0.12517886
101	0x3e9f3792	0.31097084
102	0x3e7761b1	0.2415836
103	0xbe72598c	-0.23666972
104	0x3e88ae0c	0.26695287
105	0xbdfdbdff	-0.123897545
106	0x3e389b41	0.18027975
107	0xbe46ae1f	-0.1940236
108	0xbe2db64a	-0.16964069
109	0xbe589f71	-0.21154572
110	0xbe2373f8	-0.15962207
111	0xbe60403e	-0.21899506
112	0xbddf06c8	-0.10889965
113	0x3e0b4d1e	0.13603637
114	0x3e66518c	0.22492045
115	0xbe2384e0	-0.15968657
116	0xbc33db16	-0.010977527
117	0x3dc53479	0.09629149
118	0xbe2c7c59	-0.1684431
119	0xbe3e549f	-0.18586968
120	0xbde87507	-0.11350446
121	0xbdd0bc5a	-0.10192175
122	0xbe582a44	-0.21109873
123	0xbe495d02	-0.19664386
124	0x3e089277	0.13337122
125	0x3d16d9ab	0.036828678
126	0xbda1e94d	-0.07905827
127	0xbc8d42e1	-0.017243804
128	0x3e19aae4	0.15006596
129	0xbe079c2a	-0.13243166
130	0xbd54c9df	-0.05195033
131	0x3e11519b	0.14191286
132	0x3d2d6a0b	0.04233746
133	0x3e064349	0.13111605
134	0xbdf365a8	-0.11884624
135	0xbdd79e30	-0.10528219
136	0x3dfad111	0.122469075
137	0x3de17051	0.11007751
138	0xbd738421	-0.05945218
139	0x3e244f12	0.16045788
140	0xbcd79c91	-0.026319774
141	0xbe26975b	-0.16268675
142	0x3d313506	0.043263458
143	0x3e115d95	0.14195855
144	0xbc66fc0b	-0.014098178
145	0xbd581a15	-0.05275925
146	0x3e1803b1	0.14845158
147	0x3c1dd9b3	0.009634423
148	0x3e2b02cb	0.16700284
149	0xbe32ed44	-0.17473322
150	0xbe13b7e8	-0.14425623
151	0x3cdcb792	0.026943002
152	0xbb52b40a	-0.0032150769
153	0x3d1c8d4b	0.038220685
154	0x3e3c7e23	0.18407492
155	0x3e3c423b	0.1838464
156	0xbe10816f	-0.14111875
157	0xbe1a26db	-0.15053885
158	0xbe9b4e72	-0.30333287
159	0xbc183530	-0.009290025
160	0x3de01431	0.10941351
161	0x3e223691	0.15841128
162	0x3d628273	0.055300187
163	0xbd83a4cc	-0.06427917
164	0xbdf0bc3c	-0.11754653
165	0x3d694076	0.05694624
166	0x3e17b130	0.14813685
167	0xbd855fed	-0.06512437
168	0x3d9c9f6f	0.07647597
169	0xbe20e095	-0.15710671
170	0x3e16dba4	0.14732224
171	0xbe32c9fc	-0.17459863
172	0xbdcea390	-0.10089791
173	0x3da96c44	0.08272603
174	0xbe6ebbea	-0.23313871
175	0x3e335e4d	0.17516442
176	0x3df19da2	0.11797644
177	0xbd9413cb	-0.07230338
178	0x3e0c23e7	0.1368557
179	0xbd973242	-0.07382633
180	0x3df8f841	0.12156726
181	0x3ca5f13e	0.020256635
182	0xbceb3732	-0.028712843
183	0xbe483aa5	-0.19553621
184	0xbd8c8e98	-0.06863135
185	0xbddcb89d	-0.107774
186	0x3e50d8a4	0.20395142
187	0x3cf941d9	0.030426906
188	0x3e2334e7	0.1593815
189	0xbe31dbcc	-0.17369002
190	0xbe35e604	-0.17763525
191	0xbdb06d22	-0.086145654
192	0xbcf39389	-0.029733436
193	0x3b1124aa	0.0022147098
194	0xbe6c7d46	-0.23094663
195	0x3de760fa	0.11297794
196	0x3da7e810	0.08198559
197	0xbd52df65	-0.051482577
198	0xbdb4c723	-0.08827045
199	0xbc068f37	-0.008212856
200	0xbe4289f1	-0.18997933
201	0xbe0fa227	-0.140267
202	0x3e2f88f6	0.1714209
203	0xbe08a97d	-0.13345905
204	0x3e1d835e	0.15382144
205	0xbdf568a0	-0.11982846
206	0x3e75af0f	0.23992561
207	0x3d78efe4	0.060775653
208	0x3c55e336	0.01305466
209	0xbdab66b3	-0.08369198
210	0x3dd09ad1	0.10185779
211	0x3e66acfa	0.22526923
212	0xbe8e5746	-0.2780096
213	0x3df24c14	0.11830917
214	0xbdb5b612	-0.08872618
215	0xbe3f99e8	-0.18711054
216	0xbd444d9b	-0.047925573
217	0xbe9d3dbd	-0.30711165
218	0x3dbf8cb8	0.09353012
219	0x3dee5c13	0.116386555
220	0xbeac4d10	-0.33652544
221	0x3bdfe756	0.0068329973
222	0x3dbc7ac9	0.09203107
223	0x3ca80af4	0.020513035
224	0xbdc9bf62	-0.098509565
225	0xbe620b4c	-0.22074622
226	0xbd9d6ce0	-0.07686782
227	0x3e26cf50	0.16290021
228	0x3d377340	0.044787645
229	0xbdb85242	-0.090000644
230	0xbe81fddf	-0.25389
231	0xbe3757d0	-0.17904592
232	0x3e64eea6	0.22356662
233	0xbe94d401	-0.29067996
234	0x3cd65504	0.026163585
235	0xbe62bc46	-0.22142133
236	0x3dfe12ea	0.12405951
237	0x3dd808c7	0.10548549
238	0x3db10d31	0.08645094
239	0xbdd4d402	-0.10392
240	0x3cb3089e	0.021854695
241	0x3e47f3e2	0.19526628
242	0x3cfedf44	0.03111232
243	0x3d3ff846	0.04686763
244	0xbe2ee5ad	-0.17079802
245	0xbe3317f2	-0.17489603
246	0x3e499e35	0.19689257
247	0x3d425313	0.047442507
248	0xbd26adbd	-0.040693033
249	0x3e3de9b5	0.18546183
250	0xbe704d9e	-0.23467109
251	0xbc3bd885	-0.0114651965
252	0x3d5f1cd9	0.05447087
253	0xbdd0e30e	-0.10199557
254	0xbd4e3975	-0.050347764
255	0xbe404765	-0.18777235

weight f4 [1, 64]
0	0xbdaf2b10	-0.085531354
1	0xbb783c5e	-0.0037877779
2	0xb9dd5767	-0.00042217525
3	0x39ebfb96	0.0004501014
4	0xba49e2d7	-0.0007701343
5	0xbe02dae0	-0.12778807
6	0xbe805111	-0.2506185
7	0x398ff2b1	0.00027455905
8	0x39de080f	0.00042349144
9	0xbe08076c	-0.13284081
10	0x38e3ab6a	0.00010856132
11	0xbb393e1b	-0.0028265778
12	0x3977c855	0.00023630385
13	0x3a936374	0.0011244849
14	0x3a4821fc	0.00076344586
15	0x3ab0eb29	0.0013497818
16	0x3aa45541	0.0012537615
17	0x3a11111a	0.00055338594
18	0x3da74b6b	0.08168682
19	0xb729080e	-1.007506e-05
20	0xba2793e7	-0.00063925836
21	0xba3f0c01	-0.00072878605
22	0x38cabccb	9.667276e-05
23	0x3abf2aa2	0.0014584849
24	0xbaaf00a8	-0.0013351636
25	0x3a5372ad	0.0008066099
26	0x3cb705c1	0.02234161
27	0xb9044e09	-0.00012617571
28	0xb784f026	-1.5847454e-05
29	0xba7f3481	-0.0009735302
30	0xb92e3c5d	-0.0001661642
31	0xbcd6ac57	-0.026205225
32	0xbc8566c6	-0.016284358
33	0x3a122902	0.00055755686
34	0x3b84d1e6	0.004053342
35	0xbc84b4d2	-0.016199503
36	0x39c11d49	0.00036833648
37	0xb6d20427	-6.258971e-06
38	0xb9caae6a	-0.0003865839
39	0xb7d99787	-2.5938976e-05
40	0xbde5f215	-0.11227814
41	0xbabbbb0f	-0.0014322716
42	0x3b455927	0.0030112953
43	0x3a0411ab	0.0005038033
44	0x3bfc8722	0.007706539
45	0x3cb32880	0.021869898
46	0xbdc42f6c	-0.095793575
47	0x3b11d17d	0.002225011
48	0xb82ec590	-4.1668827e-05
49	0x3945a3df	0.00018848431
50	0x3ac7975e	0.0015227606
51	0x3b3f5b9f	0.0029198898
52	0x3abe9bab	0.0014542242
53	0xbb4de74a	-0.0031418377
54	0xbd2847be	-0.041084044
55	0xba4fbf2b	-0.00079249096
56	0x3d92f603	0.07175829
57	0xbdbedecb	-0.09319838
58	0x3dec0a3e	0.11525391
59	0x3a8873ba	0.0010410466
60	0x38a27a2b	7.7475175e-05
61	0xb9df67de	-0.00042611262
62	0xbb360b15	-0.0027777601
63	0x3a832e06	0.0010008223
